cls.model (torch, 512633 bytes, 73 tensors)

weight f4 [53, 64]
0.0 0.0 0.0 0.0 0.0 0.0 0.0 0.0
0.0 0.0 0.0 0.0 0.0 0.0 0.0 0.0
0.0 0.0 0.0 0.0 0.0 0.0 0.0 0.0
0.0 0.0 0.0 0.0 0.0 0.0 0.0 0.0
0.0 0.0 0.0 0.0 0.0 0.0 0.0 0.0
0.0 0.0 0.0 0.0 0.0 0.0 0.0 0.0
0.0 0.0 0.0 0.0 0.0 0.0 0.0 0.0
0.0 0.0 0.0 0.0 0.0 0.0 0.0 0.0
0.021263173 -0.0058660624 0.037695978 0.00707659 -0.0033094503 0.040288933 0.020310126 -0.007858195
-0.019871978 0.04385236 -0.00010385665 0.006377563 -0.01676931 0.00655961 -0.0025748243 -0.02825522
-0.0025947671 0.010515877 -0.005457169 0.008911466 -0.03793227 -0.018102657 0.02247281 -0.019659752
0.0114415325 -0.0033821051 -0.018434528 -0.05145774 0.008349557 -0.011900625 -0.00070521544 0.008003433
-0.0028318542 -0.0029730017 0.020324737 0.008948624 0.00013187593 0.013406554 -0.011744758 0.001981141
0.009652827 0.03059026 0.017096696 0.010641476 -0.009602224 -0.000499471 -0.02372576 0.025592452
0.0097270105 0.023851749 -0.014964775 -0.0014223552 0.022591239 0.033129208 0.026060453 0.008031362
-0.010950453 0.013450807 0.0071354676 -0.006587167 -0.013930004 0.020722918 -0.02534879 -0.0071738334
0.017625378 -0.016240947 -0.00635459 0.0037357886 -0.012003562 0.053183198 -0.00741442 0.016032528
-0.009475824 -0.00410663 0.010350615 0.021774719 -0.018674087 0.02248849 -0.024218258 0.006307638
-0.0014051271 0.034958467 -0.030229904 0.009155329 -0.058494966 0.020344542 -0.014132711 0.052239332
-0.010120574 0.023736212 -0.008100537 0.013960554 -0.025698941 -0.0115931025 -0.0070223487 -0.017834371
-0.0021313208 -0.0274513 -0.000697589 0.0033565487 0.018400583 0.0034105177 -0.021167604 0.021903722
0.004347948 0.008768804 0.03685483 0.054542895 -0.02560669 -0.022316795 -0.013037237 0.002423312
-0.0059000943 -0.0010922196 0.010749742 0.028079038 0.02564974 0.004696947 -0.044287402 -0.005159926
-0.018489273 0.006670328 0.020453067 -0.016391795 -0.04794768 -0.02224751 -0.029978026 -0.010419024
-0.0018098812 0.024600873 -0.0076857954 0.0030531771 0.0076871514 0.000748657 -0.011368558 0.013413253
0.008434212 -0.019137086 0.0016099114 -0.022841083 0.0035566087 0.013303832 0.0030023437 0.014376166
-0.03733683 -0.025559176 0.0043592225 0.024239762 -0.046953686 -0.051150907 -0.03472983 -0.033083092
-0.025161384 0.00015627444 -0.012166121 0.015310159 0.013645609 -0.004598524 -0.0087251365 0.02292178
0.014861822 -0.0339906 0.008285158 -0.0031347433 -0.01209317 0.020518541 0.0052276496 -0.0035252084
-0.0071346965 0.011408776 -0.003324004 -0.01997511 -0.001845822 -0.01915613 0.000111693786 -0.0032007515
-0.0015437183 -0.024749769 -0.018605879 0.016187703 -0.021140588 0.0045791995 -0.010797396 -0.030412491
-0.00571823 0.008186961 -0.006768516 -0.033838578 0.013347742 0.017052097 0.02705133 -0.0053766584
00000000: 0000 0000 0000 0000 0000 0000 0000 0000
00000010: 0000 0000 0000 0000 0000 0000 0000 0000
00000020: 0000 0000 0000 0000 0000 0000 0000 0000
00000030: 0000 0000 0000 0000 0000 0000 0000 0000
00000040: 0000 0000 0000 0000 0000 0000 0000 0000
00000050: 0000 0000 0000 0000 0000 0000 0000 0000
00000060: 0000 0000 0000 0000 0000 0000 0000 0000
00000070: 0000 0000 0000 0000 0000 0000 0000 0000
00000080: 0000 0000 0000 0000 0000 0000 0000 0000
00000090: 0000 0000 0000 0000 0000 0000 0000 0000
000000a0: 0000 0000 0000 0000 0000 0000 0000 0000
000000b0: 0000 0000 0000 0000 0000 0000 0000 0000
000000c0: 0000 0000 0000 0000 0000 0000 0000 0000
000000d0: 0000 0000 0000 0000 0000 0000 0000 0000
000000e0: 0000 0000 0000 0000 0000 0000 0000 0000
000000f0: 0000 0000 0000 0000 0000 0000 0000 0000
00000100: 1b30 ae3c 1938 c0bb 1967 1a3d bde2 e73b
00000110: 5de3 58bb 0206 253d 6c61 a63c a9bf 00bc
00000120: 8fca a2bc 889e 333d 9dcd d9b8 e0fa d03b
00000130: cb5f 89bc fff1 d63b 62be 28bb 7e77 e7bc
00000140: f80c 2abb c94a 2c3c 0dd2 b2bb 6601 123c
00000150: de5e 1bbd 064c 94bc e618 b83c 7d0d a1bc
00000160: 4475 3b3c 4fa6 5dbb 0204 97bc 5ac5 52bd
00000170: 95cc 083c d7fa 42bc 35de 38ba d520 033c
00000180: a196 39bb b1d6 42bb 1080 a63c 409d 123c
00000190: 2d48 0a39 2aa7 5b3c 166d 40bc 08d6 013b
000001a0: e426 1e3c 6d98 fa3c 5f0e 8c3c 9659 2e3c
000001b0: a652 1dbc eeee 02ba 865c c2bc 43a7 d13c
000001c0: 0a5e 1f3c be64 c33c d12e 75bc 526e baba
000001d0: 4311 b93c 7eb2 073d bb7c d53c f995 033c
000001e0: 8769 33bc c660 5c3c a4d0 e93b 29d9 d7bb
000001f0: ac3a 64bc 1cc3 a93c 44a8 cfbc 7a12 ebbb
00000200: 1963 903c bc0b 85bc 2a3a d0bb 22d4 743b
00000210: 97aa 44bc a0d6 593d aaf4 f2bb a656 833c
00000220: 7d40 1bbc e990 86bb a095 293c e560 b23c
00000230: 66fa 98bc c839 b83c 5e65 c6bc 4db0 ce3b
00000240: 3e2c b8ba 9c30 0f3d b4a4 f7bc 3c00 163c
00000250: 6b98 6fbd 99a9 a63c e38c 67bc e9f8 553d
00000260: c4d0 25bc 7272 c23c 1db8 04bc cfba 643c
00000270: 9686 d2bc fff0 3dbc bb1b e6bb 6319 92bc
00000280: a1ad 0bbb 8ce1 e0bc 68de 36ba 8bf9 5b3b
00000290: d2bc 963c fe82 5f3b af67 adbc 6f6f b33c
000002a0: 3b79 8e3b 08ab 0f3c 17f5 163d 5f68 5f3d
000002b0: 1fc5 d1bc b6d1 b6bc 239a 55bc 6ed0 1e3b
000002c0: 9455 c1bb cf28 8fba b01f 303c 0306 e63c
000002d0: 671f d23c d9e8 993b b566 35bd 9914 a9bb
000002e0: d176 97bc c492 da3b 318d a73c 1648 86bc
000002f0: c964 44bd 6940 b6bc 7a94 f5bc 8eb4 2abc
00000300: 8939 edba c587 c93c 20d9 fbbb d017 483b
00000310: 80e4 fb3b 8541 443a 3043 3abc 43c3 5b3c
00000320: a62f 0a3c 61c5 9cbc aa03 d33a 391d bbbc
00000330: fe15 693b 51f8 593c f8c2 443b 038a 6b3c
00000340: 81ee 18bd 7a61 d1bc cfd7 8e3b 7792 c63c
00000350: 8252 40bd 9d83 51bd de40 0ebd 2382 07bd
00000360: 3f1f cebc 9add 2339 6954 47bc 76d7 7a3c
00000370: d591 5f3c 37af 96bb e0f3 0ebc 75c6 bb3c
00000380: 007f 733c ba39 0bbd 79be 073c 4470 4dbb
00000390: 6e22 46bc 8016 a83c b44c ab3b 2f07 67bb
000003a0: 2cca e9bb e0eb 3a3c 88d7 59bb d8a2 a3bc
000003b0: 82ef f1ba 51ed 9cbc 253d ea38 b3c3 51bb
000003c0: 9756 caba 07c0 cabc 5b6b 98bc 139c 843c
000003d0: 072f adbc 1c0d 963b 90e7 30bc 9e23 f9bc
000003e0: fd5f bbbb 9a22 063c 6dca ddbb 529a 0abd
000003f0: 7db0 5a3c d7b0 8b3c c09a dd3c ae2e b0bb

weight f4 [128, 64]
0.037149593 -0.010207265 0.01447679 0.003261567 0.005741215 -0.033556245 0.044111796 0.04036958
-0.0044055893 -0.0058366004 0.00080385094 -0.012262549 -0.008265242 0.00011091697 -0.014631274 -0.00690634
-0.008578527 0.0034005658 -0.016014263 -0.019556748 -0.0017406306 0.013230665 -0.0033734553 0.01574658
-0.012531331 0.012564362 0.031971026 -0.00034307342 0.014404716 0.020747436 -0.0075410604 -0.0021359723
0.0066697965 -0.005601348 0.0031957466 0.027890185 0.0059973155 0.016480768 -0.011805361 0.02991757
-0.016539194 0.004694055 0.003974929 0.01937528 -0.012322822 -0.010375813 0.012597956 -0.02231646
-0.019263057 0.017983839 -0.026351567 0.042364616 -0.0025604502 0.028567245 -0.016399477 -0.0010571294
-0.0057417676 -0.016241243 -0.0031881947 0.037229568 0.0041085174 0.006840447 -0.0048014764 -0.01590321
-0.007876228 -0.011203297 -0.003358922 -0.016127272 -0.02128537 0.016987028 0.02119025 0.025377616
-0.029980954 -0.0077317012 -0.018338984 -0.002838985 0.0088828 0.048813444 -0.011710501 -0.03298129
0.010930634 0.0022026724 -0.0075319023 -0.014001348 0.0092241755 0.005661327 0.024364637 -0.00020311688
-0.014000919 0.020679291 0.002813828 0.0055453116 -0.008258011 -0.01147268 0.007991711 0.019886548
0.015247192 0.007451885 0.02535958 0.005195125 -0.016202154 -0.029817926 0.001724452 -0.028908337
-0.028030742 0.0103982985 -0.006266682 0.019854836 -0.014219484 -0.02860751 -0.015374235 0.020114342
0.016684413 0.0041233986 0.054961808 0.011193123 -0.011405055 0.031404454 -0.00698944 -0.025741538
0.009648181 0.031470645 0.002768911 -0.018814629 0.0055082017 -0.004656749 -0.02210371 0.016264128
0.01419044 0.0071422053 0.0021568183 -0.029496817 -0.030857502 -0.0063772816 0.014606531 0.0061487583
-0.010624836 -0.0060549 -0.0010124231 -0.0041046566 0.0032303059 -0.016200043 -0.0048566335 -0.0075907954
0.03528296 -0.007679545 -0.0021260513 -3.6099e-05 -0.013850258 0.009489829 0.0136590535 0.02049901
-0.04140862 -0.0023132884 0.03167068 0.033850472 -0.0057817795 -0.013481197 0.024835255 0.03146244
-0.011291207 -0.025448287 0.016764518 -0.0012740005 -0.012871695 0.007070392 0.013959211 -0.0076980325
0.02232215 0.0017368703 0.029265005 -0.01739566 -0.008924681 0.009524769 -0.013412446 0.0015148513
-0.016841846 -0.020367406 0.009789695 0.009606339 0.008452687 0.031095888 -0.010656263 0.009675466
-0.018330121 -0.010797656 0.02819131 -0.0011251133 -0.017938513 0.01104344 -0.016468812 0.014658167
0.02138498 0.01604361 -0.039989077 -0.000550474 -0.014368848 0.029098682 0.0007014051 -0.0033298589
0.0007183245 -0.028351782 0.0015332683 0.011932402 0.013585277 -0.0282541 0.001054856 -0.023131587
0.009977438 0.0036929103 -0.01339965 0.0009467909 -0.0024118295 0.041156877 0.024581004 0.031959616
-0.04477884 -0.00068991276 -0.03966218 0.04685452 0.0020929843 -0.030420287 -0.007475123 -0.021644803
-0.011743294 -0.016603265 0.05831076 -0.003361641 0.012602104 -0.035709992 0.0037086443 -0.024338683
-0.002594511 0.011726069 0.041571997 0.0023141403 0.010354171 -0.044193294 -0.02419809 0.04079044
-0.026736658 0.006065531 0.026954638 0.003724256 0.008863876 -0.002816892 -0.034489144 -0.016520208
-0.0004860092 0.017813629 -0.00016613405 -0.02002629 -0.028304966 0.026259635 -0.017645098 -0.012257591
00000000: 2c2a 183d 5f3c 27bc 0f30 6d3c 04c0 553b
00000010: cd20 bc3b 4672 09bd 92ae 343d 935a 253d
00000020: c35c 90bb f440 bfbb 86b9 523a dce8 48bc
00000030: f06a 07bc 189c e838 03b8 6fbc 944e e2bb
00000040: f38c 0cbc 07dc 5e3b 5830 83bc 7935 a0bc
00000050: df25 e4ba 6ec5 583c 3015 5dbb f9fe 803c
00000060: 3650 4dbc c1da 4d3c 0df4 023d 89de b3b9
00000070: c201 6c3c 87f6 a93c 001b f7bb abfb 0bbb
00000080: 4f8e da3b 838b b7bb bb6f 513b f579 e43c
00000090: 2185 c43b ad02 873c 466b 41bc b115 f53c
000000a0: 347d 87bc 96d0 993b 1f40 823b e8b8 9e3c
000000b0: a9e5 49bc 50ff 29bc a867 4e3c 02d1 b6bc
000000c0: 8fcd 9dbc d852 933c 3edf d7bc 8586 2d3d
000000d0: 3acd 27bb db05 ea3c 3258 86bc 608f 8aba
000000e0: 7025 bcbb 5b0c 85bc 08f1 50bb 087e 183d
000000f0: bea0 863b d425 e03b b455 9dbb 7347 82bc
00000100: 4b0b 01bc 098e 37bc 5c21 5cbb 571d 84bc
00000110: a85e aebc 6128 8b3c 2d97 ad3c b8e4 cf3c
00000120: 9e9a f5bc 365a fdbb a33b 96bc 440e 3abb
00000130: 2a89 113c 9bf0 473d 67dd 3fbc 6417 07bd
00000140: 6716 333c b65a 103b 2dce f6bb e965 65bc
00000150: ff20 173c a782 b93b 5998 c73c c6fb 54b9
00000160: 1c64 65bc 9e67 a93c 3368 383b 72b5 b53b
00000170: 9c4c 07bc e8f7 3bbc aaef 023c 1de9 a23c
00000180: 5ccf 793c f12e f43b e5be cf3c de3b aa3b
00000190: 61ba 84bc b944 f4bc 0207 e23a 2dd1 ecbc
000001a0: baa0 e5bc a05d 2a3c bd58 cdbb 9ca6 a23c
000001b0: d7f8 68bc 4c5a eabc 37e4 7bbc d5c6 a43c
000001c0: c0ad 883c 931d 873b a21f 613d 5c63 373c
000001d0: 45dc 3abc f5a1 003d ac07 e5bb ebdf d2bc
000001e0: 6713 1e3c 5de7 003d 9e76 353b 2321 9abc
000001f0: 257e b43b a497 98bb d712 b5bc 593c 853c
00000200: 057f 683c 2909 ea3b 6859 0d3b 4fa3 f1bc
00000210: dfc8 fcbc 84f8 d0bb 3b50 6f3c 867b c93b
00000220: cb13 2ebc 2f68 c6bb 48b3 84ba 5b80 86bb
00000230: 8ab3 533b f4b5 84bc 6524 9fbb 35bc f8bb
00000240: dd84 103d b1a4 fbbb 3955 0bbb 0269 17b8
00000250: 31ec 62bc 3a7b 1b3c 39ca 5f3c 8aed a73c
00000260: 169c 29bd 8a9a 17bb 1db9 013d cba6 0a3d
00000270: 1575 bdbb 3de0 5cbc 4e73 cb3c c2de 003d
00000280: c1fe 38bc ed78 d0bc be55 893c 5dfc a6ba
00000290: cde3 52bc bfae e73b 2db5 643c c73f fcbb
000002a0: f1dc b63c b2a7 e33a 2abd ef3c 5881 8ebc
000002b0: d338 12bc c70d 1c3c e0bf 5bbc fa8d c63a
000002c0: e9f7 89bc 8cd9 a6bc f564 203c e863 1d3c
000002d0: 247d 0a3c cebc fe3c 9b97 2ebc d985 1e3c
000002e0: 0d29 96bc a7e8 30bc 76f1 e63c 8a78 93ba
000002f0: caf3 92bc 8bef 343c 9ae9 86bc cf28 703c
00000300: 8e2f af3c e46d 833c 96cb 23bd af4d 10ba
00000310: 516b 6bbc 5c60 ee3c 80de 373a c339 5abb
00000320: f14d 3c3a ff41 e8bc f2f7 c83a 1f80 433c
00000330: c894 5e3c 2475 e7bc 1843 8a3a 747e bdbc
00000340: 6878 233c c104 723b 358a 5bbc 1032 783a
00000350: c90f 1ebb 1d94 283d 1a5e c93c 16e8 023d
00000360: 046a 37bd 43db 34ba cf74 22bd 86ea 3f3d
00000370: 732a 093b f733 f9bc e0f1 f4bb 7150 b1bc
00000380: f266 40bc 9203 88bc 43d7 6e3d fa4e 5cbb
00000390: 0e79 4e3c a444 12bd ba0c 733b eb61 c7bc
000003a0: ac08 2abb b31e 403c 6647 2a3d d5a8 173b
000003b0: 8aa4 293c 0704 35bd 133b c6bc e013 273d
000003c0: d606 dbbc 5dc1 c63b f9cf dc3c a612 743b
000003d0: ca39 113c 9b9b 38bb 7d44 0dbd 6355 87bc
000003e0: 0dcf feb9 e3ed 913c 4534 2eb9 2d0e a4bc
000003f0: d1df e7bc 721e d73c 748c 90bc 10d4 48bc

weight f4 [2, 64]
0.017670067 -0.02548017 0.009732585 0.004591323 0.00034785102 0.016093127 0.009129062 0.0068115466
0.013073352 -0.008359486 -0.019388817 0.028697774 -0.0027156617 0.00013925575 -0.0093046175 -0.004140854
0.0046518925 0.028559735 -0.023509063 0.027157512 0.025342897 0.002656973 0.03314387 -0.00063853216
-0.019539688 0.008601217 -0.020296104 0.001230253 -0.02939704 0.026316585 -0.033214692 0.0052819853
-0.015660893 0.018375734 -0.033183567 -0.002162618 0.010422095 0.008136246 -0.008993611 0.010175214
0.002469935 -0.0017883729 0.022716435 0.02396867 0.0042708428 0.023614643 0.020790357 -0.005092875
0.008916765 0.015201544 0.016907396 0.016838968 -0.03415505 0.02012533 0.024422286 0.026197411
-0.021033242 0.008749747 0.010895233 -0.017772425 -0.016996818 0.022956613 0.022593701 -0.027436895
-0.01144125 0.040185843 -0.027940022 0.03298858 0.014592778 0.011160836 -0.006442048 0.0054589375
0.021760283 0.004158914 0.02318987 -0.029909322 -0.004650223 0.00091430667 -0.0044618356 0.029617287
0.024264237 0.034091897 0.006504066 -0.00695135 0.025735341 -0.026337955 0.036796182 0.002130197
0.009214687 0.024138166 0.0059551974 -0.013644102 -0.027592953 0.00016368741 0.020737935 0.03458167
0.0018519751 0.009981597 0.0054321284 0.0095834425 0.012835894 0.021104347 0.009963888 -0.029934883
-0.008056934 0.02861553 0.010370561 -0.015481097 -0.012296029 -0.0012766349 0.04346635 0.017888974
0.0010643502 0.008519297 -0.004533225 -0.028438035 -0.018438136 0.015708005 0.012125814 -0.022743136
-0.021709993 -0.006831272 0.0065828394 0.0013137709 -0.012583381 0.0022428795 -0.003990759 -0.005934131
00000000: d1c0 903c cabb d0bc 6c75 1f3c cf72 963b
00000010: c65f b639 bcd5 833c 1092 153c 6533 df3b
00000020: 9d31 563c 3af6 08bc 4cd5 9ebc 9817 eb3c
00000030: 3ef9 31bb 2e05 1239 6572 18bc 00b0 87bb
00000040: e76e 983b 1bf6 e93c 1496 c0bc 6e79 de3c
00000050: e89b cf3c 9c20 2e3b dec1 073d 2b63 27ba
00000060: b211 a0bc 1eec 0c3c 0444 a6bc 7140 a13a
00000070: 10d2 f0bc e195 d73c 210c 08bd 8114 ad3b
00000080: 464b 80bc b588 963c 7eeb 07bd b6ba 0dbb
00000090: 6fc1 2a3c e44d 053c f059 13bc f1b5 263c
000000a0: a2de 213b d667 eaba d117 ba3c f259 c43c
000000b0: 6df2 8b3b 7f73 c13c 8a50 aa3c 22e2 a6bb
000000c0: a017 123c e60f 793c 6181 8a3c e0f1 893c
000000d0: 2ae6 0bbd e0dd a43c 3f11 c83c f49b d63c
000000e0: e84d acbc 195b 0f3c eb81 323c 7a97 91bc
000000f0: e93c 8bbc 820f bc3c 6d16 b93c 57c3 e0bc
00000100: 1574 3bbc e999 243d 79e2 e4bc 091f 073d
00000110: 8c16 6f3c f0db 363c d117 d3bb e3e0 b23b
00000120: 9f42 b23c 8047 883b aff8 bd3c 6504 f5bc
00000130: e660 98bb 15ae 6f3a 9734 92bb f49f f23c
00000140: cbc5 c63c f2a3 0b3d 0f20 d53b 26c8 e3bb
00000150: ecd2 d23c b2c2 d7bc 98b7 163d c69a 0b3b
00000160: 33f9 163c 67bd c53c d123 c33b 838b 5fbc
00000170: 9e0a e2bc 81a3 2b39 9ae2 a93c 82a5 0d3d
00000180: f9bd f23a da89 233c ffff b13b df03 1d3c
00000190: a44d 523c 06e3 ac3c 933f 233c 003a f5bc
000001a0: 3b01 04bc 1e6b ea3c 49e9 293c 6da4 7dbc
000001b0: 4975 49bc c254 a7ba c509 323d e68b 923c
000001c0: ab81 8b3a 8594 0b3c 738b 94bb e2f6 e8bc
000001d0: 930b 97bc 13ae 803c 5aab 463c d04f babc
000001e0: 28d9 b1bc ddd8 dfbb dcb4 d73b d632 ac3a
000001f0: 862a 4ebc 46fd 123b eac4 82bb 1973 c2bb

weight f4 [64]
0.9921636 0.99483323 0.99298036 1.0160124 1.0218338 1.0182838 0.98722064 1.0118778
1.003054 1.0012125 1.0014797 0.9917053 0.99870044 1.0318048 1.0044485 1.0030717
1.0085762 0.9979786 0.98736024 1.009646 0.9966083 1.0094503 0.9979393 1.0070214
1.0086687 1.0195068 0.98759174 0.99584097 1.002495 1.0032554 0.989614 1.0243495
0.99883324 1.004549 1.0042849 1.0159116 1.019282 1.0104072 1.0032696 1.0009202
1.0084994 1.0070744 0.9988507 0.9927797 1.0069786 0.9918636 1.012829 1.00667
1.0113654 0.99024576 0.99755824 0.9960066 0.9932725 0.9904145 1.008377 1.0057865
0.9958423 1.0184871 1.0143198 0.9810309 0.99725425 1.0072322 1.0046183 0.9926286
00000000: 6ffe 7d3f 64ad 7e3f f633 7e3f b20c 823f
00000010: 73cb 823f 2057 823f 7eba 7c3f 3685 813f
00000020: 1364 803f bb27 803f 7d30 803f 66e0 7d3f
00000030: d5aa 7f3f 2e12 843f c591 803f a764 803f
00000040: 0619 813f 877b 7f3f a4c3 7c3f 153c 813f
00000050: b921 7f3f ab35 813f f378 7f3f 14e6 803f
00000060: 0e1c 813f 337f 823f d0d2 7c3f 6fef 7e3f
00000070: c251 803f ac6a 803f 5857 7d3f e21d 833f
00000080: 89b3 7f3f 1095 803f 688c 803f 6409 823f
00000090: d577 823f 0655 813f 236b 803f 271e 803f
000000a0: 8216 813f d0e7 803f aeb4 7f3f cf26 7e3f
000000b0: ade4 803f c6ea 7d3f 61a4 813f 90da 803f
000000c0: 6c74 813f bf80 7d3f fa5f 7f3f 4afa 7e3f
000000d0: 1b47 7e3f ce8b 7d3f 7f12 813f 9dbd 803f
000000e0: 85ef 7e3f c95d 823f 3bd5 813f d724 7b3f
000000f0: 0e4c 7f3f fcec 803f 5597 803f e81c 7e3f

bias f4 [64]
-0.012697373 0.0106310295 -0.00988575 -0.001377592 0.0016054764 -0.003635443 -0.010135081 -0.0036366223
0.003903837 -0.001751221 0.007549938 -0.0060908617 0.006323145 -0.0018409562 0.010590932 0.008564472
0.0033307986 -0.0077275163 0.012937082 -0.002633745 0.0024880616 0.003808371 -0.008761562 0.00281805
0.0056642513 -0.00020436464 0.00839061 0.013420362 0.0050731963 -0.0066118436 0.012183846 -0.00078705914
0.006245875 -0.004589138 0.011218063 -0.0026619332 -0.0015019033 -0.006544482 0.007966093 -0.006400587
0.009154937 -0.0050192242 -0.005164805 -0.010155393 0.0044303625 -0.006357304 -0.00068818836 -0.00022435162
0.0011025034 -0.010560552 0.0036800178 -0.009603455 0.0097748535 -0.013252634 -0.0043087685 -0.0026269539
0.007829481 -0.0007011914 0.0012762407 0.0011741499 0.006513328 -0.011352334 -0.0003969311 0.013077924
00000000: a408 50bc c52d 2e3c d7f7 21bc 5190 b4ba
00000010: d96e d23a 9d40 6ebb 9c0d 26bc 6654 6ebb
00000020: 84d7 7f3b 3a89 e5ba 7865 f73b da95 c7bb
00000030: 6232 cf3b 3d4c f1ba 9785 2d3c 0052 0c3c
00000040: 8749 5a3b 1b37 fdbb 0ef6 533c e99a 2cbb
00000050: bf0e 233b dd95 793b a88c 0fbc 09af 383b
00000060: 2f9b b93b b74a 56b9 c578 093c 14e1 5b3c
00000070: 0e3d a63b 2aa8 d8bb c19e 473c a552 4eba
00000080: 32aa cc3b 7b60 96bb f7cb 373c d473 2ebb
00000090: 83db c4ba 1873 d6bb 3784 023c 04bc d1bb
000000a0: 97fe 153c 4e78 a4bb 863d a9bb ce62 26bc
000000b0: 932c 913b ee50 d0bb 8a67 34ba ee3f 6bb9
000000c0: e081 903a 2a06 2dbc 742c 713b cf57 1dbc
000000d0: b526 203c 9321 59bc 9230 8dbb f928 2cbb
000000e0: 3947 003c 29d0 37ba 8847 a73a efe5 993a
000000f0: c16d d53b 24ff 39bc 311b d0b9 ca44 563c

weight f4 [64, 64]
0.043438625 -0.021001464 0.056494225 0.039241027 0.0013740177 0.025665762 0.031244162 0.023249185
-0.039024994 0.027832847 -0.016870905 0.013176365 0.00040150905 -0.038888454 0.010985941 -0.034762595
-0.014106825 0.034522165 -0.016009033 0.03182471 -0.015720986 -0.019634273 0.020598946 -0.052961737
-0.013338904 0.019744629 -0.026430342 -0.0034572845 0.018320113 -0.0013767428 -0.05792343 -0.028413894
-0.014887181 0.01357868 -0.04299715 -0.020663109 0.0111722145 0.0549021 -0.027426666 0.0073942663
-0.04956066 0.006845125 0.0006365418 -0.01527763 -0.036221236 0.024341922 0.014916305 -0.044338416
-0.014824685 0.027946072 -0.013251572 0.058808394 -0.0040517054 0.0470672 0.004021858 0.025512971
-0.005794651 -0.016415859 0.04684249 0.079389535 -0.011570714 0.05499784 0.003210179 -0.014360586
0.02383914 -0.049342874 0.03123517 0.041819986 -0.008096455 0.057379484 0.013134143 0.061522502
-0.008999704 0.004533644 -0.013395783 0.039617028 -0.050830998 -0.019166104 -0.014858094 0.00042608674
-0.022318622 0.048089724 -0.0027967112 0.0078584105 -0.029471412 -0.06299266 0.015137813 -0.007905621
0.018145462 0.039575167 -0.018417938 -0.036361326 -0.010412409 0.0064558215 -0.04579108 -0.034001086
-0.0032316141 0.008747947 -0.03534918 -0.00576435 0.044687722 0.026260229 -0.026720406 0.013175306
-0.026401198 0.036790326 -0.008574764 0.026828464 -0.0073343813 0.009848298 0.010010793 -0.03068732
-0.037097212 0.01820491 -0.036496833 0.037577312 -0.04934109 0.010508832 0.024837382 0.015169988
-0.03227974 -0.015433057 0.023072593 0.026189929 -0.023305466 0.019871984 -0.032914694 -0.015712181
0.010678359 -0.020622924 0.047007352 0.06457374 -0.023707574 0.012299917 0.03306223 0.016728777
0.027864043 -0.00797318 -0.023681793 0.050985556 -0.015317054 0.008584659 -0.008932567 -0.015173537
-0.029095067 0.007812141 -0.034767076 -0.009463399 -0.015372062 -0.049765266 0.010437696 -0.05572388
-0.033593375 0.0058539915 -0.0390288 -0.03660537 -0.032409042 -0.021905936 -0.0049752034 -0.0339269
0.006271813 0.006570105 -0.0008582482 -0.012834729 0.044415746 0.059113435 -0.009863148 0.0016997468
-0.047401648 0.007338461 0.032786995 0.031033998 0.004546934 0.0014005976 0.012946612 -0.048702713
-0.010693054 0.056099784 -0.019732723 0.029915253 -0.010984571 0.0025535403 -0.0068561505 0.048143134
-0.028483482 -0.033311564 0.017289598 -0.018336216 -0.031451494 0.024334341 -0.01105192 -0.034492645
-0.058756202 0.022126028 -0.020260027 0.018697863 0.013495092 -0.037650023 -0.020434726 -0.027108058
0.0067938566 -0.03039406 0.021371204 -0.011832938 0.025310135 0.012886787 0.025362613 0.02933643
0.010992094 0.016513627 0.0064364867 -0.016854068 -0.00050831254 0.026603298 -0.032571115 0.067987174
0.039953835 -0.027244454 0.014116129 0.014243444 0.024372648 -0.009234232 0.017720252 0.02300026
0.027836092 -0.034824837 0.037324443 0.009582192 -0.02505525 -0.016586034 0.027681042 -0.018548625
0.030334765 0.019761313 -0.03089007 -0.037715692 0.023678461 -0.002336759 -0.03665596 0.06676971
0.031372756 -0.05822536 0.012294103 -0.039151303 0.028871574 -0.07069086 -0.014809645 -0.04614349
0.010486905 0.0024999813 0.0007197306 -0.032073624 -0.010091832 -0.008264705 0.06686626 0.012604818
00000000: b3ec 313d 430b acbc 7d66 673d 33bb 203d
00000010: 6218 b43a 0141 d23c c2f3 ff3c 1375 be3c
00000020: acd8 1fbd b601 e43c da34 8abc aee1 573c
00000030: a281 d239 8049 1fbd 60fe 333c 3963 0ebd
00000040: 5020 67bc 1d67 0d3d 6025 83bc a15a 023d
00000050: 4cc9 80bc 0ed8 a0bc 1fbf a83c 68ee 58bd
00000060: 6b8b 5abc 7dbf a13c 7284 d8bc 9c93 62bb
00000070: 1014 963c d373 b4ba 1e41 6dbd 41c4 e8bc
00000080: 5de9 73bc 1d79 5e3c c81d 30bd ae45 a9bc
00000090: aa0b 373c 06e1 603d e3ad e0bc 9a4b f23b
000000a0: 1e00 4bbd 124d e03b 99dd 263a 064f 7abc
000000b0: b85c 14bd b668 c73c 8563 743c 339c 35bd
000000c0: 3ce3 72bc 29ef e43c 1f1d 59bc 12e1 703d
000000d0: 2bc4 84bb 89c9 403d cac9 833b 9400 d13c
000000e0: 0ee1 bdbb 8d7a 86bc e9dd 3f3d fb96 a23d
000000f0: 1893 3dbc 6a45 613d de61 523b aa48 6bbc
00000100: 4d4a c33c c11b 4abd e6e0 ff3c 6f4b 2b3d
00000110: fea6 04bc c006 6b3d 9730 573c 05ff 7b3d
00000120: 7f73 13bc f68e 943b fc79 5bbc 7745 223d
00000130: 2a34 50bd 3c02 9dbc 5d6f 73bc 6564 df39
00000140: 8bd5 b6bc bbf9 443d 0749 37bb 90c0 003c
00000150: 086e f1bc 4c02 81bd 9704 783c 9486 01bc
00000160: cba5 943c 9219 223d 37e1 96bc 9def 14bd
00000170: cf98 2abc 5b8b d33b 6d8f 3bbd b944 0bbd
00000180: 7dc9 53bb 8d53 0f3c 4dca 10bd dfe2 bcbb
00000190: 790a 373d b11f d73c c1e4 dabc 3ddd 573c
000001a0: 5347 d8bc 74b1 163d 2b7d 0cbc 5ec7 db3c
000001b0: 4055 f0bb c15a 213c 4f04 243c f963 fbbc
000001c0: 3ff3 17bd 7722 953c b47d 15bd abea 193d
000001d0: e219 4abd 3c2d 2c3c c477 cb3c 8b8b 783c
000001e0: c337 04bd efda 7cbc bc02 bd3c 438c d63c
000001f0: 1beb bebc 92ca a23c 8fd1 06bd d5b6 80bc
00000200: 49f4 2e3c 68f1 a8bc c88a 403d 3d3f 843d
00000210: 6336 c2bc 9785 493c 436c 073d ca0a 893c
00000220: 2243 e43c f1a1 02bc 5200 c2bc 3bd6 503d
00000230: 62f4 7abc aba6 0c3c e759 12bc 6d9a 78bc
00000240: c758 eebc fdfc ff3b ec67 0ebd 5f0c 1bbc
00000250: 1adb 7bbc aad6 4bbd df02 2b3c b93e 64bd
00000260: 3599 09bd d7d2 bf3b aadc 1fbd 83ef 15bd
00000270: 58bf 04bd 1474 b3bc 0807 a3bb eff6 0abd
00000280: c883 cd3b 094a d73b 10fc 60ba c148 52bc
00000290: 49ed 353d ee20 723d 0b99 21bc 0aca de3a
000002a0: 3b28 42bd 7977 f03b a84b 063d 033b fe3c
000002b0: 72fe 943b 4294 b73a 071e 543c 7f7c 47bd
000002c0: eb31 2fbc e3c8 653d 85a6 a1bc d510 f53c
000002d0: a1f8 33bc 4c59 273b 8fa9 e0bb bc31 453d
000002e0: 3156 e9bc b571 08bd eaa2 8d3c d535 96bc
000002f0: 48d3 00bd d058 c73c 1d13 35bc 2948 0dbd
00000300: 58aa 70bd a541 b53c 5bf8 a5bc 432c 993c
00000310: 851a 5d3c e936 1abd ba66 a7bc b811 debc
00000320: 009f de3b f7fc f8bc aa12 af3c f0de 41bc
00000330: 3357 cf3c 1a23 533c 41c5 cf3c f452 f03c
00000340: 2f18 343c 9647 873c 2ae9 d23b 8b11 8abc
00000350: 4740 05ba 29ef d93c 4a69 05bd dc3c 8b3d
00000360: a2a6 233d c32f dfbc 5647 673c 565d 693c
00000370: 26a9 c73c 2d4b 17bc 102a 913c 0b6b bc3c
00000380: 8408 e43c 7da4 0ebd 84e1 183d a0fe 1c3c
00000390: ab40 cdbc 6fdf 87bc 5ac3 e23c 49f3 97bc
000003a0: 9d80 f83c 7ae2 a13c 2c0d fdbc c57b 1abd
000003b0: 55f9 c13c 4f24 19bb 8f24 16bd 8fbe 883d
000003c0: b880 003d b77d 6ebd 356d 493c 1e5d 20bd
000003d0: 1484 ec3c 5fc6 90bd 27a4 72bc f500 3dbd
000003e0: 45d1 2b3c bad6 233b 4eac 3c3a a25f 03bd
000003f0: 3658 25bc af68 07bc 2df1 883d 7084 4e3c

bias f4 [64]
0.021578653 0.020924203 0.018172508 -0.02146795 -0.014082683 0.02093384 0.021340333 0.017942386
-0.016109059 -0.021490991 0.010386131 0.016567547 -0.012788018 0.02145934 0.019194115 -0.018914556
0.021117182 -0.019052546 0.022747641 -0.0219754 -0.022310616 0.021722881 0.023128055 -0.02247302
-0.02199442 -0.021164834 -0.019616032 0.022352573 -0.02297867 0.022229658 -0.021854114 0.020867355
-0.019181322 -0.017439218 0.021737194 0.021947231 -0.019691426 -0.012410464 0.021088379 0.020976262
-0.016706627 -0.021608561 0.018544821 -0.020703912 -0.021041803 0.021399656 -0.022233551 -0.018997788
-0.020401884 -0.021708645 -0.018365443 -0.01972782 0.01604894 -0.02189846 -0.021764014 0.013712414
0.019217556 -0.022830818 -0.022292934 0.017471597 -0.020362753 -0.021812018 0.021608192 -0.022365872
00000000: b7c5 b03c 3c69 ab3c 83de 943c 8edd afbc
00000010: 0ebb 66bc 727d ab3c ecd1 ae3c e9fb 923c
00000020: 25f7 83bc e00d b0bc 972a 2a3c aab8 873c
00000030: d684 51bc 7fcb af3c fa3c 9d3c b3f2 9abc
00000040: f1fd ac3c 1614 9cbc 4359 ba3c c105 b4bc
00000050: c1c4 b6bc 2ff4 b13c 0c77 bd3c 5719 b8bc
00000060: a42d b4bc e061 adbc cdb1 a0bc be1c b73c
00000070: c43d bcbc f91a b63c 6607 b3bc 04f2 aa3c
00000080: 2622 9dbc b1dc 8ebc 3312 b23c aeca b33c
00000090: ea4f a1bc 4255 4bbc 89c1 ac3c 69d6 ab3c
000000a0: 56dc 88bc 7004 b1bc 4feb 973c 409b a9bc
000000b0: dc5f acbc 554e af3c 2323 b6bc 40a1 9bbc
000000c0: da21 a7bc 54d6 b1bc 2073 96bc 3d9c a1bc
000000d0: 1179 833c 6664 b3bc 724a b2bc 08aa 603c
000000e0: 236e 9d3c b207 bbbc ac9f b6bc 9820 8f3c
000000f0: cacf a6bc 1eaf b2bc aa03 b13c a238 b7bc

weight f4 [64, 64]
-0.033975862 0.03275776 0.030499993 -0.005628773 0.02055488 -0.055323128 -0.028593488 -0.02427977
0.040616013 0.0009702892 0.022002911 0.0073015657 -0.0036610062 -0.031875342 0.036409635 0.06307151
0.0076981555 -0.021660045 0.02719444 -0.038477622 0.029372573 -0.022697987 -0.03772454 -0.03010732
0.046194453 -0.006047244 0.0076488107 -0.01263476 0.04606169 -0.00043472616 0.0453203 -0.0036680412
-0.004430294 -0.0022751167 -0.036020257 -0.051666487 -0.01301427 0.019215524 0.035094675 0.036676414
0.028572278 -0.047727957 -0.034217477 -0.028081905 0.020387547 -0.012687775 -0.0100004645 0.0043609478
0.024606427 -0.035492398 0.003369743 -0.032785837 -0.022227764 -0.021053178 0.035831038 -0.038104557
0.03611779 0.010470633 -0.0239601 0.016666388 0.010940972 -0.007752572 0.052402437 -0.010012162
-0.04216404 0.023360793 -0.02902501 -0.010644253 0.066353515 -0.02527235 -0.03027284 -0.02836596
0.0054838024 -0.007502816 0.029545605 -0.01905097 -0.0630427 -0.040471815 0.019798107 0.008329696
-0.0051995427 -0.032100316 -0.008776595 -0.013026498 0.0026524542 0.009147284 -0.034535974 -0.031095903
-0.0016400815 -0.018470813 -0.025779972 -0.028203672 0.0148359155 0.012028762 0.011085852 -0.024844853
0.007552617 0.0019649423 -0.031319387 -0.06589721 0.011023405 0.014929358 -0.015573617 -0.0028822897
0.010353973 -0.04699925 -0.0023689107 -0.03764527 -0.004732191 0.030722285 0.0314397 -0.030001307
0.039574545 0.005990103 0.007369581 0.02012282 -0.009322868 -0.028795896 0.014775652 -0.0006881514
0.021831458 0.019502986 -0.024347877 0.01953403 0.016632097 -0.0020997173 0.036704764 -0.018565867
-0.024084492 -0.0023611048 -0.0032531165 0.037704717 0.023004044 -0.009777136 -0.043716777 -0.045487143
0.034343183 0.0003759787 0.017564991 -0.0107092075 0.00011798012 -0.008273757 0.012216203 0.011851861
-0.018369503 -0.025696086 0.05202088 -0.03941801 -0.0073548383 0.03549363 -0.023767428 -0.021872222
0.016914789 -0.013712735 0.011608286 -0.021513361 0.03870607 0.030457709 0.014689617 -0.017055562
0.03336605 0.02101148 -0.0062022964 -0.039185215 -0.0017448023 0.008178412 -0.016933762 0.031164404
0.04796043 0.003686759 -0.06776049 -0.03026664 0.009100951 0.05573375 0.041456524 -0.021214455
0.002248795 -0.0411265 0.00090519246 -0.027279891 -0.027654706 -0.028650474 0.02605887 -0.04075312
0.006854669 -0.0055278153 -0.011573182 -0.0002857939 0.046505228 -0.026044741 -0.011972828 0.020485746
0.023558144 -0.030976325 -0.009201198 -0.0058779214 -0.008540562 0.015258082 0.031769104 0.01792122
0.0073278905 -0.020498069 -0.029340196 0.04092556 -0.0011253213 0.023441881 -0.019071335 -0.042925127
0.02639709 0.05079987 -0.04292373 -0.018017618 -0.018422354 -0.02612313 0.012522675 0.025658702
-0.02456697 -0.004681848 -0.034314316 0.023930823 -0.004357626 -0.032810103 -0.03331845 -0.0062502236
-0.040500253 0.01824027 0.046625637 0.034655876 0.030416057 -0.027990855 -0.037816525 -0.052174903
-0.03567437 -0.01768094 0.025329899 0.016720606 -0.0121546555 -0.036052737 -0.028114552 0.00026500196
-0.027226172 0.0052924054 0.0021147649 0.040511366 -0.01919592 0.067004964 0.007775932 0.030290302
-0.010138549 -0.029938227 -0.0035510038 -0.013977004 -0.0020834552 0.013629051 -0.04823859 -0.022351107
00000000: 462a 0bbd 002d 063d 1fdb f93c 9271 b8bb
00000010: b562 a83c 819a 62bd e43c eabc 5ee6 c6bc
00000020: fa5c 263d 025b 7e3a 733f b43c f941 ef3b
00000030: 7eed 6fbb b88f 02bd 4522 153d a32b 813d
00000040: cf40 fc3b 6870 b1bc e0c6 de3c b69a 1dbd
00000050: c09e f03c 21f1 b9bc 0c85 1abd a0a3 f6bc
00000060: 6536 3d3d f627 c6bb e0a2 fa3b 0602 4fbc
00000070: 2fab 3c3d f5eb e3b9 c7a1 393d 8563 70bb
00000080: 002c 91bb 201a 15bb fa89 13bd 3da0 53bd
00000090: ce39 55bc e069 9d3c 6fbf 0f3d 023a 163d
000000a0: 6910 ea3c 647e 43bd a027 0cbd 060c e6bc
000000b0: c903 a73c 63e0 4fbc fdd8 23bc 48e6 8e3b
000000c0: 6b93 c93c 7a60 11bd e8d6 5c3b 714a 06bd
000000d0: 0017 b6bc b777 acbc 91c3 123d 8613 1cbd
000000e0: 3ff0 133d 058d 2b3c f947 c4bc f387 883c
000000f0: c341 333c 4a09 febb f0a3 563d 0d0a 24bc
00000100: 33b4 2cbd 225f bf3c dcc5 edbc 3c65 2ebc
00000110: 5ae4 873d f607 cfbc bffe f7bc bb5f e8bc
00000120: 78b1 b33b 2fda f5bb a009 f23c c810 9cbc
00000130: 881c 81bd c6c5 25bd a42f a23c 4779 083c
00000140: ed60 aabb 9f7b 03bd b5cb 0fbc 186d 55bc
00000150: ccd4 2d3b 7dde 153c 9875 0dbd d6bc febc
00000160: 01f8 d6ba 1a50 97bc 8530 d3bc 630b e7bc
00000170: 5712 733c 4914 453c 6fa1 353c 6f87 cbbc
00000180: f27b f73b 43c6 003b c248 00bd 1ef5 86bd
00000190: 839b 343c 449a 743c 7c28 7fbc cce4 3cbb
000001a0: b6a3 293c 4982 40bd ba3f 1bbb ed31 1abd
000001b0: 7f10 9bbb 4dad fb3c eac6 003d 4dc5 f5bc
000001c0: eb18 223d a048 c43b 877c f13b 9dd8 a43c
000001d0: f1be 18bc 5fe5 ebbc 9415 723c 0f65 34ba
000001e0: e3d7 b23c bac4 9f3c 3375 c7bc d505 a03c
000001f0: 0940 883c 699b 09bb bc57 163d 7217 98bc
00000200: d74c c5bc c4bc 1abb 3d32 55bb 4370 1a3d
00000210: fa72 bc3c 4830 20bc 5d10 33bd ba50 3abd
00000220: 70ab 0c3d 021f c539 75e4 8f3c ac75 2fbc
00000230: 186c f738 a78e 07bc 7826 483c 4f2e 423c
00000240: a47b 96bc 9980 d2bc d913 553d c774 21bd
00000250: db00 f1bb c561 113d e9b3 c2bc 602d b3bc
00000260: e290 8a3c 61ab 60bc ae30 3e3c ca3c b0bc
00000270: 428a 1e3d 7282 f93c b8ac 703c 1bb8 8bbc
00000280: d7aa 083d 4420 ac3c a23c cbbb ad80 20bd
00000290: dab1 e4ba bffe 053c acb8 8abc 7e4c ff3c
000002a0: 2872 443d 8d9d 713b 03c6 8abd bff1 f7bc
000002b0: 281c 153c 1349 643d 51ce 293d f0c9 adbc
000002c0: 8560 133b 4374 28bd 704a 6d3a 147a dfbc
000002d0: 1f8c e2bc 66b4 eabc 6979 d53c beec 26bd
000002e0: 229d e03b ad22 b5bb 729d 3dbc 9cd6 95b9
000002f0: 447c 3e3d c85b d5bc ae29 44bc b9d1 a73c
00000300: 02fd c03c 10c2 fdbc 9fc0 16bc 949b c0bb
00000310: b7ed 0bbc 09fd 793c 5220 023d 86cf 923c
00000320: cd1e f03b 91eb a7bc da5a f0bc 8fa1 273d
00000330: 847f 93ba 3009 c03c 7d3b 9cbc 42d2 2fbd
00000340: b63e d83c 8613 503d cbd0 2fbd af99 93bc
00000350: 7aea 96bc 2d00 d6bc e82b 4d3c 3332 d23c
00000360: ac40 c9bc 306a 99bb 2b8d 0cbd 930a c43c
00000370: 6bca 8ebb e363 06bd ed78 08bd adce ccbb
00000380: 98e3 25bd 9e6c 953c 86fa 3e3d 52f3 0d3d
00000390: 182b f93c 144d e5bc 80e5 1abd 5ab5 55bd
000003a0: 4a1f 12bd 9ed7 90bc a680 cf3c a7f9 883c
000003b0: 5224 47bc 09ac 13bd 7d50 e6bc f6ef 8a39
000003c0: 6c09 dfbc ea6b ad3b de97 0a3b 3fef 253d
000003d0: c340 9dbc e639 893d 3fcd fe3b 5e23 f83c
000003e0: 281c 26bc 0341 f5bc f5b7 68bb ceff 64bc
000003f0: 948a 08bb 624c 5f3c d495 45bd ab19 b7bc

bias f4 [64]
4.855304e-06 2.4463734e-06 3.994689e-06 -2.8677523e-06 -1.8828192e-06 1.8158696e-06 4.083575e-06 1.9286188e-06
-1.6194925e-06 -2.5000422e-06 2.7902638e-06 1.7905942e-06 -2.8217587e-06 3.6550184e-06 2.2314334e-06 -2.9994976e-06
4.58871e-07 -2.6031134e-07 6.3566284e-07 -6.01271e-07 -1.546867e-06 2.514342e-07 3.5960998e-06 -2.0281215e-07
-4.2890028e-07 -1.1658165e-06 -4.098874e-07 -8.0427344e-07 -3.0032222e-08 8.8612194e-07 -7.716387e-07 -6.268713e-07
-3.9849118e-07 3.8332448e-07 -9.099449e-07 1.940285e-07 6.648627e-08 -2.7475042e-07 1.2051109e-07 1.051664e-06
-1.0250994e-06 -1.832049e-06 1.185374e-06 -4.6354248e-07 -2.707278e-07 -5.40363e-07 7.044821e-07 -1.8994472e-06
-3.2725006e-06 -2.1177018e-06 -2.357539e-06 -4.652762e-06 2.664477e-06 -3.1656575e-06 -3.5984874e-06 2.3142638e-06
3.7629425e-06 -5.1421607e-06 -4.8175443e-06 4.140742e-06 -4.162571e-06 -2.7572098e-06 4.43382e-06 -2.201666e-06
00000000: beea a236 602c 2436 1e0a 8636 9c73 40b6
00000010: 2db5 fcb5 ceb8 f335 a405 8936 6b6d 0136
00000020: 575d d9b5 66c6 27b6 5e40 3b36 5954 f035
00000030: 725d 3db6 bd48 7536 bcbf 1536 fa4a 49b6
00000040: c05a f634 ebc0 8bb4 6ba2 2a35 0767 21b5
00000050: f29d cfb5 dafc 8634 8654 7136 94c4 59b4
00000060: 9b43 e6b4 2679 9cb5 7f0e dcb4 40e5 57b5
00000070: c7fc 00b3 d6dd 6d35 9c22 4fb5 4546 28b5
00000080: 36f0 d5b4 b7cb cd34 f042 74b5 2656 5034
00000090: 37c7 8e33 6981 93b4 d665 0134 e626 8d35
000000a0: 2696 89b5 b9e4 f5b5 2419 9f35 cbdc f8b4
000000b0: 8c58 91b4 760d 11b5 a41b 3d35 82f0 feb5
000000c0: 229d 5bb6 d71d 0eb6 3636 1eb6 ec1e 9cb6
000000d0: 5ecf 3236 9571 54b6 8b7d 71b6 c04e 1b36
000000e0: dc86 7c36 d38a acb6 64a6 a1b6 b4f0 8a36
000000f0: 36ac 8bb6 8108 39b6 39c6 9436 55c0 13b6

weight f4 [64, 64]
-0.02382986 0.0141940005 0.003234645 0.027310628 0.018188203 -0.02965729 0.009589911 0.043807503
-0.007821958 0.027769022 0.013561119 -0.025368584 -0.04884337 -0.020567175 -0.0147060575 0.01895947
0.029452922 -0.027583642 -0.0110963145 0.0038767261 -0.045619775 0.025822854 0.0282898 -0.026988093
0.0065837116 -0.03809909 0.00362107 0.009024982 0.027357435 -0.021854414 0.024189563 0.021871932
-0.02220288 -0.0016722765 -0.013694261 -0.0487085 -0.034344275 -0.02081688 0.036866874 0.006353345
-0.018100541 0.039378233 0.0033953874 -0.036310576 0.003358765 0.008942545 0.011871814 -0.020128043
0.024307925 -0.013379799 -0.028614992 -0.018437529 -0.0569888 0.07032084 0.04048442 0.050746042
0.0072970977 -0.020181146 -0.028781999 0.016137948 -0.006879032 -0.000942177 0.04225993 -0.0024911833
0.07789915 0.036648076 -0.030283554 -0.03820074 0.016367797 0.0024555388 0.011071185 -0.025148574
-0.022378128 -0.012719941 -0.03093502 0.014668633 0.036848314 -0.011405117 0.04993199 0.015262683
0.016670154 0.014264883 0.015014639 0.0042801215 0.05135398 -0.013450783 -0.028575173 -0.003235851
-0.06638213 0.0485783 0.024691785 -0.007491428 -0.008073902 0.034782596 -0.017857494 -0.017504135
0.030389117 0.02509321 0.045077596 0.021368537 -0.015515946 -0.039415795 0.0131305335 -0.037311744
0.009692649 -0.029705483 0.00801009 0.014393013 -0.040812016 -0.0313134 0.01204585 0.011522258
0.027171656 -0.025712287 0.04950873 0.014088289 0.008802987 0.012290885 0.025691928 0.052164678
-0.013916672 -0.014489454 0.03695385 0.012443217 0.031722132 -0.012820815 -0.031043952 -0.0024539174
0.07325048 0.016842755 0.011257844 0.023312045 0.012595389 -0.0099364715 0.040467955 0.00568606
-0.024359645 -0.011327523 -0.006278042 -0.050281923 0.023778932 0.023420451 0.023546962 0.0088724885
-0.012317951 0.054002885 -0.011009846 -0.02782459 0.031721517 -0.0008594863 0.0038674267 -0.027311832
-0.04281312 -0.009064678 -0.03577074 -0.006512362 0.0025096308 -0.017251093 -0.0052513243 0.0028232292
0.040215757 -0.0064628036 -0.018497072 -0.023719205 0.003968808 -0.041112788 0.018369824 0.011795062
0.033520866 -0.0064167716 0.024842216 -0.029200388 -0.030896496 0.0043146685 0.0298728 -0.053237446
0.034372393 -0.019979248 -0.0076089804 -0.021271894 0.003206316 0.042420723 0.017128125 0.02108968
0.04457068 -0.04819268 0.011391765 -0.030685714 0.015115025 -0.07433477 0.05118403 -0.0010394024
0.028143715 0.0031288816 -0.026864802 -0.016756712 0.0055131014 -0.021238882 0.0073052538 -0.028931836
0.022876201 -0.063856885 0.009133846 0.051966544 0.024621118 0.034702532 0.025445625 -0.0048873937
-0.06736636 -0.029904846 0.038896386 -0.024170665 0.006185494 -0.009740083 -0.03399898 0.03502041
-0.03581871 0.011246154 -0.0021006276 0.032971885 0.03303029 0.008301621 0.017111065 -0.00874993
0.028115654 -0.019958869 -0.016520446 0.04476231 0.03523951 0.015074031 -0.03265493 -0.034703877
0.036548655 -0.02859648 -0.02784867 0.011280164 -0.0005378189 -0.021837628 -0.012910924 0.039321948
-0.026183372 0.009660614 -0.023489254 0.053218987 0.020832816 -0.022895485 -0.01007991 -0.031870212
0.030164106 -0.044614684 0.04306598 -0.002741091 -0.0028717192 -0.03374392 -0.04393283 0.0072035906
00000000: d736 c3bc f48d 683c 56fc 533b 8aba df3c
00000010: 6dff 943c d8f3 f2bc 011f 1d3c 7f6f 333d
00000020: ab27 00bc dc7b e33c 752f 5e3c c7d1 cfbc
00000030: fc0f 48bd 7e7c a8bc adf1 70bc e450 9b3c
00000040: 4147 f13c 17f7 e1bc 51cd 35bc ac10 7e3b
00000050: cddb 3abd 738a d33c 03c0 e73c 2216 ddbc
00000060: 2dbc d73b cb0d 1cbd 794f 6d3b 85dd 133c
00000070: b31c e03c 0708 b3bc 3129 c63c c42c b33c
00000080: d0e2 b5bc 4a30 dbba e55d 60bc 9082 47bd
00000090: 95ac 0cbd 2988 aabc b801 173d b82f d03b
000000a0: 9647 94bc 124b 213d 2685 5e3b 66ba 14bd
000000b0: ba1e 5c3b c183 123c ff81 423c 91e3 a4bc
000000c0: 6a21 c73c f236 5bbc fd69 eabc 4d0a 97bc
000000d0: 176d 69bd 5f04 903d fed2 253d 15db 4f3d
000000e0: 7e1c ef3b ee52 a5bc 3ac8 ebbc bb33 843c
000000f0: 8169 e1bb 6efc 76ba c018 2d3d 1f43 23bb
00000100: 9789 9f3d 4b1c 163d 3715 f8bc 6178 1cbd
00000110: c215 863c 1bed 203b ea63 353c 6204 cebc
00000120: 5652 b7bc 4d67 50bc 706b fdbc b554 703c
00000130: 42ee 163d 87dc 3abc 7d85 4c3d 5510 7a3c
00000140: d98f 883c 41b7 693c f6ff 753c 4340 8c3b
00000150: 8d58 523d ac60 5cbc 7b16 eabc 9210 54bb
00000160: 5bf3 87bd 0afa 463d 6d46 ca3c a77a f5bb
00000170: 6648 04bc 3278 0e3d e149 92bc d564 8fbc
00000180: 99f2 f83c 4790 cd3c 49a3 383d 120d af3c
00000190: 9836 7ebc 7572 21bd 7321 573c 33d4 18bd
000001a0: ebcd 1e3c ea58 f3bc c13c 033c acd0 6b3c
000001b0: 802a 27bd 7b42 00bd f55b 453c dac7 3c3c
000001c0: 1897 de3c 93a2 d2bc abc9 4a3d 91d2 663c
000001d0: 673a 103c b55f 493c e177 d23c a1aa 553d
000001e0: c102 64bc 2d65 6dbc ec5c 173d a3de 4b3c
000001f0: 11ef 013d 650e 52bc e34f febc e7d1 20bb
00000200: 5904 963d d1f9 893c d272 383c e7f8 be3c
00000210: e45c 4e3c 95cc 22bc bac1 253d 2152 ba3b
00000220: e18d c7bc 1397 39bc 09b8 cdbb 6bf4 4dbd
00000230: 09cc c23c 3fdc bf3c 8fe5 c03c ea5d 113c
00000240: 3bd1 49bc 2132 5d3d a462 34bc 65f0 e3bc
00000250: 6cee 013d 264f 61ba a774 7d3b 10bd dfbc
00000260: cf5c 2fbd 0484 14bc 5784 12bd a765 d5bb
00000270: 9e78 243b 2a52 8dbc 4d13 acbb ed05 393b
00000280: 47b9 243d edc5 d3bb 2c87 97bc c74e c2bc
00000290: c60c 823b e265 28bd 507c 963c 1340 413c
000002a0: 2d4d 093d c843 d2bb e781 cb3c a735 efbc
000002b0: a61a fdbc 1062 8d3b cdb7 f43c 820f 5abd
000002c0: 11ca 0c3d 85ab a3bc c154 f9bb 6542 aebc
000002d0: 0e21 523b 5ac1 2d3d 4850 8c3c 44c4 ac3c
000002e0: bf8f 363d b065 45bd 87a4 3a3c 9b60 fbbc
000002f0: 03a5 773c d43c 98bd 58a6 513d 8f3c 88ba
00000300: a68d e63c ec0d 4d3b 9313 dcbc 5f45 89bc
00000310: 3fa7 b43b 2afd adbc e960 ef3b 7502 edbc
00000320: df66 bb3c 66c7 82bd 20a6 153c dfda 543d
00000330: 3ab2 c93c 3e24 0e3d 5873 d03c 6e26 a0bb
00000340: 60f7 89bd 02fb f4bc d151 1f3d 8f01 c6bc
00000350: afaf ca3b de94 1fbc 8442 0bbd 9071 0f3d
00000360: a4b6 12bd ca41 383c afaa 09bb 870d 073d
00000370: c54a 073d 8603 083c 812c 8c3c de5b 0fbc
00000380: cd52 e63c c880 a3bc e355 87bc af58 373d
00000390: 4e57 103d 12f9 763c 2dc1 05bd a725 0ebd
000003a0: 0bb4 153d 2a43 eabc e522 e4bc 70d0 383c
000003b0: 6afc 0cba d3e4 b2bc 5788 53bc 0d10 213d
000003c0: 837e d6bc 8d47 1e3c 896c c0bc 27fc 593d
000003d0: 95a9 aa3c 508f bbbc 3526 25bc 578a 02bd
000003e0: b71a f73c e3bd 36bd f465 303d e0a3 33bb
000003f0: 7433 3cbb 1137 0abd e9f2 33bd 190c ec3b

bias f4 [64]
-0.0029504867 0.0025851086 0.0032962256 -0.003949553 -0.0016822105 -0.00027003232 -0.0006477896 -0.0034607057
0.0034421298 0.0040208106 -0.0009004812 -0.001096028 0.0014002298 -0.0039513246 0.0019875055 -0.0031220631
0.003487423 -0.0003495356 0.0013971482 0.003106272 0.0023968474 0.0013836953 -0.0036246644 -0.002961768
-0.0020545956 0.0007049255 0.007101014 0.0020410523 0.0059997793 -0.0031987843 -0.0021112221 -0.0024106929
0.0010562694 -0.004224453 -0.0029328782 -0.006174591 -0.002304648 0.0073248795 0.0009464871 -0.0009079975
0.0013878525 -0.00022617982 -0.0018977631 -0.0018677828 -0.0021879496 0.001410596 -0.00070193154 0.004964589
-0.0013827664 0.00033134499 -0.00023321212 0.00019614576 0.002129919 0.0013032295 -0.0024553814 -0.004419225
-0.0012125564 -0.001819812 0.0013776573 0.0019377627 0.0011447248 -0.002242512 -0.0022106138 -0.0005026261
00000000: f45c 41bb ed6a 293b 7d05 583b 406b 81bb
00000010: 9e7d dcba 2093 8db9 6dd0 29ba 02cd 62bb
00000020: 5b95 613b 01c1 833b 450e 6cba 99a8 8fba
00000030: ea87 b73a 1d7a 81bb cf40 023b 879b 4cbb
00000040: 408d 643b e041 b7b9 8420 b73a 9992 4b3b
00000050: 6d14 1d3b 1c5d b53a c78b 6dbb 391a 42bb
00000060: 65a6 06bb c0ca 383a 9faf e83b 2dc3 053b
00000070: cc99 c43b b2a2 51bb 6e5c 0abb b7fc 1dbb
00000080: 8572 8a3a 486d 8abb 8835 40bb 3954 cabb
00000090: 9409 17bb 8b05 f03b ad1d 783a ae06 6eba
000000a0: 9ae8 b53a af2a 6db9 5dbe f8ba 64d0 f4ba
000000b0: b463 0fbb bfe3 b83a d401 38ba fead a23b
000000c0: f13d b5ba 5fb8 ad39 678a 74b9 7aac 4d39
000000d0: 1c96 0b3b 20d1 aa3a 77ea 20bb 25cf 90bb
000000e0: a4ee 9eba c286 eeba 8292 b43a 87fc fd3a
000000f0: 970a 963a 1cf7 12bb f2df 10bb abc2 03ba

weight f4 [64, 64]
0.014918316 0.05917684 -0.02277585 0.018667832 -0.0145969065 0.016526904 -0.028267983 0.03266153
0.0019947917 -0.014940011 0.0041100364 -0.013507141 -0.028391436 0.0039887545 -0.050731674 -0.021854265
0.05713895 -0.008231152 -0.0072580962 0.009535579 -0.023367114 0.0120502515 -0.020723732 0.018016761
-0.0032777581 0.018988084 -0.01255323 -0.011081646 -0.004264233 0.017488426 0.012333647 -0.0049668755
-0.0207025 0.053134713 -2.4478762e-05 0.009115671 -0.018528722 0.044336334 0.0374611 0.0031951945
0.030994846 -0.018474195 0.032341562 -0.0023805941 -0.019849759 0.006777565 0.008397826 0.0050901636
-0.014616828 -0.018173097 0.015156554 -0.005340444 -0.016629176 0.010670603 0.011785353 0.014502238
0.0038316369 0.026869742 -0.022929803 -0.004747258 0.03155479 0.012881701 0.0047352402 -0.017012898
-0.005768632 -0.048589505 0.015457564 -0.010991384 0.0061648814 -0.011432334 -0.02243891 -0.008123305
0.03394722 0.034954056 -0.026934624 0.0001230553 -0.035824277 0.012588203 0.018870477 -0.020936925
-0.0010486726 0.03824681 0.016955435 0.024330506 -0.03690801 0.01887825 -0.0038331891 0.013832917
0.008680367 0.04664943 -0.0021109243 -0.052463945 0.0066854833 0.02585999 0.0685049 0.05871648
0.031382076 -0.041219063 -0.030330062 -0.030523429 -0.04707198 0.013781381 -0.00089953316 -0.0124104945
-0.005480026 -0.0065303883 -0.048884865 -0.028885337 -0.008929494 -0.012595541 0.022662057 -0.017145973
-0.030198758 0.015546137 -0.0067961277 0.0077239317 -0.010751248 0.032055818 -0.009617495 -0.037333865
-0.017836908 -0.016050894 -0.01270504 -0.033601467 -0.036086466 -0.004140767 0.018214596 0.006402061
0.06639926 -0.033133775 0.026522093 -0.036384363 -0.040095497 0.015041951 0.0019919141 0.03345183
0.012386101 -0.02636979 0.0017028013 -0.014500971 -0.027807623 0.009398495 -0.036346048 0.010963848
0.0038621393 -0.020146707 -0.013466465 -0.0031470882 0.0021788594 -0.015481227 -0.0052672066 0.008852909
0.033243585 0.03580536 -0.021235207 -0.043539844 0.011063842 0.047197863 0.009069509 -0.0016898635
-0.009413532 0.0030513024 -0.004089057 0.03293388 0.010520255 -0.017499123 0.023478977 0.040329825
-0.009607775 -0.0033006605 -0.024474049 0.022055319 0.005899343 0.005801934 0.038096853 -0.009927408
-0.008878833 0.055330023 -0.011826688 -0.026741758 0.0025109577 0.016439022 0.008926893 0.0035562087
-0.022076314 0.01905978 0.03334793 -0.0009267254 0.033818163 0.0035696926 0.05667349 0.013198135
-0.027213711 0.03980117 -0.03482153 0.028847232 0.02628305 0.039425485 0.008838398 -0.0057847854
-0.061144948 0.047228213 -0.021751797 0.03909559 -0.07548955 -0.0026480805 0.04123432 -0.012441326
0.021796402 0.021471255 0.039827365 -0.023917066 -0.032820985 0.025842076 -0.028826647 0.007815292
0.044217885 -0.047552045 -0.045658916 -0.059420425 -0.019339828 -0.0040048854 0.044551115 -0.010196444
0.027390415 0.011306879 -0.025869925 -0.027159091 0.009632637 -0.030223556 0.01925696 -0.019890048
0.038392205 0.05949398 0.088337235 -0.047034778 0.04243411 -0.03542823 0.024335261 -0.048607603
-0.03737047 -0.0048613804 0.055002216 0.00446116 -0.014801772 -0.0017894888 0.016063588 -0.011256987
-0.007953138 -0.040887404 -0.036101855 -0.0062845484 -0.03120236 -0.047273286 0.00812683 -0.019578462
00000000: f46b 743c 6a63 723d 6b94 babc 48ed 983c
00000010: dd27 6fbc 6e63 873c 4292 e7bc 19c8 053d
00000020: 0dbb 023b f3c6 74bc 7cad 863b 0e4d 5dbc
00000030: 2895 e8bc 19b4 823b 04cc 4fbd b707 b3bc
00000040: 880a 6a3d f4db 06bc 53d5 edbb 1e3b 1c3c
00000050: 646c bfbc 6b6e 453c d1c4 a9bc e397 933c
00000060: a8cf 56bb e68c 9b3c 10ac 4dbc cb8f 35bc
00000070: fbba 8bbb e343 8f3c 1113 4a3c 2cc1 a2bb
00000080: 4a98 a9bc c9a3 593d be57 cdb7 e559 153c
00000090: 8cc9 97bc 049a 353d cf70 193d 7866 513b
000000a0: e7e8 fd3c 3257 97bc 9678 043d be03 1cbb
000000b0: f69b a2bc 5616 de3b 0997 093c 63cb a63b
000000c0: 6c7b 6fbc bfdf 94bc 3253 783c e4fe aebb
000000d0: e939 88bc c1d3 2e3c 5a17 413c cb9a 6d3c
000000e0: 331c 7b3b ef1d dc3c 48d7 bbbc e38e 9bbb
000000f0: 983f 013d c50d 533c 132a 9b3b a25e 8bbc
00000100: cb06 bdbb ca05 47bd b941 7d3c 3515 34bc
00000110: c602 ca3b af4e 3bbc ced1 b7bc 9c17 05bc
00000120: 3d0c 0b3d fc2b 0f3d 00a6 dcbc 6808 0139
00000130: 7abc 12bd c03e 4e3c 4296 9a3c ea83 abbc
00000140: 9d73 89ba b0a8 1c3d 20e6 8a3c c550 c73c
00000150: da2c 17bd 8fa6 9a3c 3e36 7bbb 76a3 623c
00000160: 1938 0e3c 7913 3f3d 6f57 0abb 6fe4 56bd
00000170: e611 db3b 54d8 d33c 4c4c 8c3d b180 703d
00000180: 7e8a 003d 52d5 28bd c076 f8bc 450c fabc
00000190: 8cce 40bd 4dcb 613c a6ce 6bba 6355 4bbc
000001a0: ca91 b3bb defc d5bb 7f3b 48bd f1a0 ecbc
000001b0: 034d 12bc 875d 4ebc c7a5 b93c b675 8cbc
000001c0: 6363 f7bc 39b5 7e3c 0db2 debb 0919 fd3b
000001d0: 0126 30bc f64c 033d b392 1dbc 65eb 18bd
000001e0: b51e 92bc 2a7d 83bc cd28 50bc b1a1 09bd
000001f0: 67cf 13bd 45af 87bb c736 953c 61c8 d13b
00000200: 56fc 873d 48b7 07bd dc44 d93c c507 15bd
00000210: 2d3b 24bd 8472 763c c68a 023b c904 093d
00000220: 13ef 4a3c 7505 d8bc 8830 df3a 7b95 6dbc
00000230: d0cc e3bc 25fc 193c 98df 14bd b6a1 333c
00000240: f21b 7d3b b50a a5bc 73a2 5cbc 613f 4ebb
00000250: 32cb 0e3b f9a4 7dbc 8898 acbb cb0b 113c
00000260: 6d2a 083d a4a8 123d 75f5 adbc d656 32bd
00000270: 1e45 353c 8c52 413d 4798 143c 697e ddba
00000280: 373b 1abc 5cf8 473b 7ffd 85bb ade5 063d
00000290: 265d 2c3c 525a 8fbc fc56 c03c e330 253d
000002a0: ee69 1dbc e54f 58bb cd7d c8bc 5bad b43c
000002b0: 474f c13b 261e be3b 720b 1c3d 91a6 22bc
000002c0: 8678 11bc bca1 623d bac4 41bc 8811 dbbc
000002d0: e18e 243b 21ab 863c 1a42 123c 480f 693b
000002e0: 63d9 b4bc 4123 9c3c d797 083d 7def 72ba
000002f0: ea84 0a3d 81f1 693b 7622 683d fe3c 583c
00000300: 4aef debc 8d06 233d 05a1 0ebd 0851 ec3c
00000310: 8d4f d73c 9e7c 213d eece 103c 4c8e bdbb
00000320: 2073 7abd 5f72 413d d330 b2bc b322 203d
00000330: 449a 9abd 6b8b 2dbb 51e5 283d b4d6 4bbc
00000340: 5e8e b23c 7ce4 af3c 0522 233d b9ed c3bc
00000350: 4c6f 06bd c3b2 d33c dc25 ecbc b60b 003c
00000360: d01d 353d efc5 42bd d804 3bbd d562 73bd
00000370: 8f6e 9ebc 6a3b 83bb 3b7b 363d fc0e 27bc
00000380: dd61 e03c 7d40 393c 2aed d3bc be7c debc
00000390: 35d2 1d3c 6497 f7bc c6c0 9d3c 74f0 a2bc
000003a0: 2541 1d3d f6af 733d 27ea b43d 8aa7 40bd
000003b0: 64cf 2d3d 311d 11bd be5a c73c c418 47bd
000003c0: c711 19bd 374c 9fbb 014a 613d ec2e 923b
000003d0: 2283 72bc 488d eaba c997 833c 3a6f 38bc
000003e0: e14d 02bc 8d79 27bd 8adf 13bd 9dee cdbb
000003f0: 179c ffbc a2a1 41bd 6526 053c 0363 a0bc
