gen.model (torch, 957851 bytes, 53 tensors)

weight f4 [53, 64]
-0.029413464 0.014587595 0.0057911165 0.0015389195 -0.0015647366 0.026643904 -0.008880616 -2.9269064e-05
0.033893384 0.00775586 -0.013758675 -0.0071551315 -0.030714199 -0.01216349 -0.021177897 -0.028751247
-0.0056719957 -0.013680216 0.004324238 0.024167333 -0.020119755 -0.050511986 -0.0043712766 0.0126088
0.00570001 -0.021304842 -0.039419018 -0.037159547 0.010127191 0.027476212 0.028234107 -0.00334903
-0.017229147 0.029925745 0.009158713 0.009518817 0.0011463604 0.00693029 0.00648929 0.016372992
0.011604519 0.016789561 0.03141001 0.0481923 -0.008334863 0.005989089 0.0029204634 -0.014811893
-0.007134611 0.039472524 0.009451321 0.019433502 0.0046486543 -0.0010781763 -0.019837376 -0.00037954672
0.018507762 0.002148324 0.0040088855 0.0018487916 0.0021729372 -0.018477755 0.012264155 -0.00059647084
-0.003196299 -0.0027266562 0.040025353 0.018155487 0.034429755 0.01698447 0.0121197365 0.0042102896
0.02368556 0.012834414 -0.006165203 -0.045589965 -0.023137782 -0.028983967 -0.0061836406 -0.024670493
-0.0067344485 0.017655088 -0.026092716 0.017622886 0.04772718 -0.020553382 0.00085436436 -0.026809497
0.030225763 0.064615004 -0.037345786 -0.015785173 0.01868916 -0.0053366157 0.007432148 0.015119455
0.0042059016 -0.016767297 -0.01750937 0.018174672 0.026513444 0.068211555 0.030443328 0.0482834
-0.0044036205 -0.008675214 -0.034337778 -0.009872662 0.018253094 0.010116974 -0.006495609 0.008612058
-0.037023026 0.005078742 0.004141572 -0.06672619 -0.023295062 -0.010988682 -0.0076426645 0.00482443
0.009838508 0.020682346 -0.02283591 0.034618016 0.00265597 -0.02017371 0.014632102 -0.0034161129
0.02944736 0.003066926 -0.042951617 -0.03897996 0.008046941 0.009103496 0.0050028516 0.013760254
-0.022061983 0.0065088333 0.02667727 -0.0124253845 0.012882087 -0.045955677 -0.003353764 0.007373589
-0.007486527 -0.013002421 0.008136875 0.0088916505 -0.033199515 -0.009562555 -0.023038594 0.015821122
0.013677424 0.015484706 0.009299762 -0.013600297 0.012929055 -0.00014958056 0.02242219 0.0024947582
-0.03443154 0.009123033 0.022891076 0.0073596253 0.017147118 -0.024462333 -0.0029956945 -0.017369729
-0.051317275 -0.0005241465 0.021166105 -0.027043499 0.007039461 -0.01187971 -0.0035238508 0.00664338
0.002266509 0.0065293144 0.0075881495 0.00060346193 -0.010724967 -0.011920106 -0.030983388 -0.003102764
0.030899301 0.001065935 0.024675265 -0.0011428957 -0.013693364 0.0110491365 0.014354396 0.003776106
0.028155673 -0.023427121 0.00042524244 -0.016089208 -0.040149868 -0.00908874 -0.012296413 -0.020798042
-0.0026856363 0.034675352 0.0016685781 2.9143754e-05 -0.021504886 0.0016759443 0.0076793362 0.0054051518
0.002926658 0.009414369 -0.0002907321 -0.009971654 0.0046591857 0.03043998 -0.032493312 -0.011690098
-0.060790952 0.028170139 0.0010776138 -0.04361563 -0.025613539 0.013859642 -0.029328927 0.02441139
0.005905313 -0.0036421805 -0.015874688 -0.013617169 -0.0015205458 0.024391413 0.023883708 -0.029265076
0.0070925266 -0.011615315 -0.016362421 -0.054916307 -0.017637756 0.012271643 -0.011770171 -0.013687373
-0.023874056 0.030734446 -0.0013543471 0.021500587 -0.0030947353 0.0031364614 0.004996703 -0.014805946
0.029272594 0.014078136 0.0032026106 -0.014862394 -0.049518183 -0.012633412 -0.004394034 -0.0056190807
00000000: 81f4 f0bc cf00 6f3c 68c3 bd3b 92b5 c93a
00000010: d917 cdba 5144 da3c 0180 11bc d686 f5b7
00000020: cad3 0a3d df24 fe3b 116c 61bc 9875 eabb
00000030: 589c fbbc 6049 47bc 457d adbc bc87 ebbc
00000040: 26dc b9bb fc22 60bc 56b2 8d3b 92fa c53c
00000050: 2fd2 a4bc a8e5 4ebd ed3c 8fbb 2495 4e3c
00000060: 26c7 ba3b 7e87 aebc d675 21bd 9c34 18bd
00000070: 85ec 253c cb15 e13c 374b e73c 667b 5bbb
00000080: 2424 8dbc d626 f53c 6d0e 163c d0f4 1b3c
00000090: 7941 963a 7c17 e33b 1ca4 d43b a720 863c
000000a0: e120 3e3c 438a 893c c8a7 003d 4a65 453d
000000b0: f38e 08bc 1f40 c43b 3f65 3f3b 95ad 72bc
000000c0: 74c9 e9bb f1ad 213d b7d9 1a3c 0233 9f3c
000000d0: bd53 983b 9851 8dba fe81 a2bc e6fd c6b9
000000e0: 979d 973c e5ca 0c3b f85c 833b 2753 f23a
000000f0: d667 0e3b a95e 97bc 98ef 483c 7b5c 1cba
00000100: 0079 51bb b3b1 32bb a0f1 233d d1ba 943c
00000110: 3706 0d3d 0423 8b3c dc91 463c 78f6 893b
00000120: 3808 c23c 6f47 523c 7905 cabb 8bbc 3abd
00000130: 728b bdbc c96f edbc 23a0 cabb c619 cabc
00000140: a6ac dcbb 67a1 903c 64c0 d5bc df5d 903c
00000150: 937d 433d 915f a8bc 6cf7 5f3a 979f dbbc
00000160: 059c f73c df54 843d e5f7 18bd e84f 81bc
00000170: 021a 993c c7de aebb 6089 f33b 97b7 773c
00000180: a9d1 893b 925b 89bc cf6f 8fbc 0de3 943c
00000190: b932 d93c 80b2 8b3d 4964 f93c d0c4 453d
000001a0: 3f4c 90bb 7c22 0ebc c5a5 0cbd f2c0 21bc
000001b0: 8387 953c aac1 253c 1ed9 d4bb 9719 0d3c
000001c0: 75a5 17bd 936b a63b 06b6 873b bea7 88bd
000001d0: 49d5 bebc df09 34bc 516f fabb 4116 9e3b
000001e0: b231 213c 066e a93c 6012 bbbc 9fcb 0d3d
000001f0: c80f 2e3b 5643 a5bc 7cbb 6f3c dde0 5fbb
00000200: 973b f13c 7bfe 483b 09ee 2fbd 73a9 1fbd
00000210: 51d7 033c d426 153c f6ee a33b b072 613c
00000220: 55bb b4bc 0d48 d53b 4a8a da3c d793 4bbc
00000230: 640f 533c 053c 3cbd d3ca 5bbb 269e f13b
00000240: 8a51 f5bb 1b08 55bc 8750 053c 49ae 113c
00000250: 37fc 07bd 43ac 1cbc 6fbb bcbc 4c9b 813c
00000260: 4617 603c 90b3 7d3c 075e 183c c8d3 5ebc
00000270: 63d4 533c bad8 1cb9 beae b73c 197f 233b
00000280: 1608 0dbd c678 153c 1186 bb3c 0329 f13b
00000290: 1d78 8c3c 3b65 c8bc 6a53 44bb f64a 8ebc
000002a0: 1032 52bd e066 09ba 8a64 ad3c 548a ddbc
000002b0: 47ab e63b 1da3 42bc 68f0 66bb b6b0 d93b
000002c0: b689 143b dcf3 d53b 03a6 f83b a531 1e3a
000002d0: c6b7 2fbc 8c4c 43bc e0d0 fdbc be57 4bbb
000002e0: 8820 fd3c d8b6 8b3a c823 ca3c 37cd 95ba
000002f0: 225a 60bc 7007 353c b32e 6b3c 8c78 773b
00000300: baa6 e63c 3cea bfbc 13f3 de39 84cd 83bc
00000310: 3074 24bd f0e8 14bc e576 49bc a860 aabc
00000320: 8001 30bb be07 0e3d 31b4 da3a bc79 f437
00000330: 042b b0bc 5cab db3a f1a2 fb3b b31d b13b
00000340: 2ccd 3f3b ba3e 1a3c 676d 98b9 2660 23bc
00000350: 15ac 983b 445d f93c b517 05bd d387 3fbc
00000360: efff 78bd 10c5 e63c b83e 8d3a 4ea6 32bd
00000370: 7cd3 d1bc 8d13 633c 3843 f0bc 65fa c73c
00000380: 5b81 c13b a6b1 6ebb a20b 82bc 8c1a 5fbc
00000390: 0d4d c7ba 80d0 c73c c4a7 c33c 50bd efbc
000003a0: 6d68 e83b 2a4e 3ebc 7c0a 86bc ecef 60bd
000003b0: 0e7d 90bc 000f 493c add7 40bc 0141 60bc
000003c0: 8693 c3bc cec6 fb3c 5984 b1ba 0022 b03c
000003d0: 0bd1 4abb 178d 4d3b 62bb a33b a394 72bc
000003e0: 14cd ef3c fba7 663c e4e2 513b 6681 73bc
000003f0: 94d3 4abd 5ffc 4ebc d4fb 8fbb 4420 b8bb

weight f4 [128, 64]
0.0082743615 -0.017745715 0.022940628 0.0008670393 0.0048801424 3.6322697e-05 0.009199201 0.030868005
-0.0038531306 0.019865772 -0.008391085 -0.060360488 -0.022749402 -0.01410838 -0.005129065 -0.030454233
0.0049396404 -0.009102009 -0.0020094414 0.02857533 -0.0150845535 -0.04293193 -0.0046881465 -0.02946042
0.057560727 0.024189899 -0.017466541 -0.003248279 0.013505192 -0.0073815375 -0.0057171206 -0.024349978
0.011821831 0.021819735 -0.006959902 0.025485035 -0.011353083 0.08693206 -0.016012415 0.012844941
-0.0043720077 0.010007258 -0.022925694 -0.0031894739 0.0035756363 -0.0011653148 0.0037927823 -0.03687958
0.0035715613 0.014921595 -0.018920232 -0.061622523 -0.012159096 0.009089563 -0.008527989 -0.026409859
-0.0028764843 -0.0039609964 -0.004563748 0.0008279161 0.020718649 0.021097833 0.039118312 0.004986522
0.035422865 0.01126816 0.018317565 0.049187057 0.035560176 0.00759897 -0.01926193 0.0060048266
0.048286945 0.03832433 5.291843e-05 -0.02574444 -0.015097374 -0.010337467 0.009907282 -0.03776024
-0.020611713 0.0025042023 -0.015240241 0.0027556107 -0.0244796 -0.015396018 0.0024918076 -0.054807458
-0.01623194 0.09297429 -0.037774812 -0.015028576 0.023635337 0.036949348 -0.012541222 0.018964838
-0.0147605855 -0.04932007 -0.017892087 -0.010850261 0.009426862 0.032699764 0.03137291 0.051408727
0.037880894 0.021358851 -0.033376157 0.026592093 0.025716482 -0.0029359122 0.03492609 -0.066291794
0.025250686 -0.0006722238 -0.026022667 -0.057469856 -0.060682073 -0.038459565 -0.00046168486 0.015760448
0.007583793 -0.023558037 -0.0043699746 0.021870222 0.014032384 -0.061820526 -0.006736813 0.0032194455
-0.012716582 -0.03677018 -0.0010132515 -0.032493632 0.018255072 -0.033359773 -0.03870262 -0.022970242
-0.07176798 -0.00069925823 0.028815953 -0.020845043 -0.0049115676 0.054857742 1.2297389e-05 -0.019994762
0.0022146108 0.021841248 -0.03676375 -0.0008399804 -0.022917967 0.014633689 -0.040115982 0.09951163
-0.05345637 0.058150873 0.027665904 0.027643438 -0.042123638 -0.006154272 0.051339526 0.035464283
-0.057397075 0.037415 -0.042922378 -0.039265238 -0.037327524 -0.0073346836 -0.004526984 -0.008419875
0.050324887 0.04582638 0.029802967 -0.021614343 0.019952742 -0.045734573 0.06202565 0.06672728
-0.015714994 -0.021259595 0.03459609 -0.009397445 -0.027063876 -0.05779511 -0.023194896 -0.020948583
0.014682197 0.0039528995 0.035674445 0.0065277093 0.03941286 0.013588336 -0.050186943 -0.0133512905
0.06751251 -0.041770745 -0.03983009 0.008824909 -0.046570715 0.0034248964 0.059791688 -0.011276094
0.03184743 -0.13235159 0.00065372424 -0.022161065 -0.032460447 -0.021267118 -0.03646762 0.0705286
-0.040372714 -0.006072192 0.05607932 0.01022545 0.019190649 -0.0029231354 -0.04674866 -0.005380239
-0.022765901 0.02303791 -0.023778368 0.03271005 0.017577816 -0.012373337 -0.0031482687 -0.026923157
0.055031296 -0.023454592 -0.0017070126 -0.01738196 0.0062615285 -0.005060221 -0.017039375 0.042974293
-0.012949562 0.0075678173 -0.015872657 -0.030151185 -0.0087733 -0.0057046916 0.10386396 0.056426525
-0.011812727 0.020030718 -0.043501105 -0.004188757 0.010968902 0.05069263 -0.04954267 -0.005049576
0.038463827 -0.002221509 0.010623227 -0.010593585 -0.028261166 -0.010614002 0.0023854065 0.035895832
00000000: 3091 073c 765f 91bc fced bb3c 064a 633a
00000010: 9ae9 9f3b 3359 1838 3fb8 163c e6de fc3c
00000020: ce84 7cbb 8bbd a23c c37a 09bc 8f3c 77bd
00000030: f45c babc d626 67bc b711 a8bb 287b f9bc
00000040: b5dc a13b 9820 15bc d5b0 03bb cf16 ea3c
00000050: 3425 77bc 64d9 2fbd 069f 99bb fb56 f1bc
00000060: ccc4 6b3d e529 c63c fe15 8fbc 14e1 54bb
00000070: e144 5d3c d3e0 f1bb af56 bbbb 9b79 c7bc
00000080: 5ab0 413c 4dbf b23c e40f e4bb fec5 d03c
00000090: 4802 3abc 7009 b23d 782c 83bc 9673 523c
000000a0: 0f43 8fbb 7bf5 233c aace bbbc 7e06 51bb
000000b0: 3955 6a3b 7abd 98ba 5490 783b 0b0f 17bd
000000c0: db10 6a3b b579 743c 9afe 9abc e667 7cbd
000000d0: f236 47bc 64ec 143c fab8 0bbc 7d59 d8bc
000000e0: 6683 3cbb 3fcb 81bb 7e8b 95bb 8208 593a
000000f0: 28ba a93c 5dd5 ac3c 863a 203d fa65 a33b
00000100: 9117 113d 179e 383c b80e 963c 5e78 493d
00000110: 8ca7 113d c800 f93b 32cb 9dbc 23c4 c43b
00000120: 88c8 453d f9f9 1c3d bbf4 5d38 01e6 d2bc
00000130: fa5a 77bc 7b5e 29bc 2752 223c 7baa 1abd
00000140: e5d9 a8bc 8b1d 243b 34b2 79bc 7a97 343b
00000150: 7189 c8bc 943f 7cbc 984d 233b c97d 60bd
00000160: d8f8 84bc 4e69 be3d c3b9 1abd 6b3a 76bc
00000170: e59e c13c 3358 173d b379 4dbc 265c 9b3c
00000180: 62d6 71bc d703 4abd 6d92 92bc 4bc5 31bc
00000190: 2073 1a3c 30f0 053d e180 003d f591 523d
000001a0: ff28 1b3d c2f8 ae3c 70b5 08bd a9d7 d93c
000001b0: 5fab d23c 6f68 40bb a90e 0f3d fec3 87bd
000001c0: 87da ce3c 2d38 30ba 7d2d d5bc 8365 6bbd
000001d0: c48d 78bd c787 1dbd 4b0e f2b9 0e1c 813c
000001e0: 7781 f83b c9fc c0bc 0132 8fbb 2e29 b33c
000001f0: 16e8 653c 8537 7dbd 7cc0 dcbb 55fd 523b
00000200: 3659 50bc 549c 16bd 14cf 84ba 0b18 05bd
00000210: a98b 953c 42a4 08bd a386 1ebd 172c bcbc
00000220: 17fb 92bd 6d4e 37ba 6f0f ec3c 39c3 aabc
00000230: 37f1 a0bb 83b2 603d e250 4e37 0ecc a3bc
00000240: 0123 113b 6bec b23c 9695 16bd 2132 5cba
00000250: 76be bbbc 24c2 6f3c a850 24bd c1cc cb3d
00000260: 11f5 5abd 9c2f 6e3d 9ba3 e23c 7e74 e23c
00000270: d689 2cbd c6a9 c9bb 6549 523d ff42 113d
00000280: 3219 6bbd 7940 193d 60cf 2fbd 96d4 20bd
00000290: bfe4 18bd c957 f0bb 1857 94bb 84f3 09bc
000002a0: 7821 4e3d 71b4 3b3d 5a25 f43c 9010 b1bc
000002b0: ef73 a33c 2d54 3bbd 9c0e 7e3d 50a8 883d
000002c0: bbbc 80bc 9a28 aebc a1b4 0d3d bef7 19bc
000002d0: 10b5 ddbc 91ba 6cbd 3903 bebc 5d9c abbc
000002e0: 998d 703c 5387 813b 5e1f 123d 65e6 d53b
000002f0: 616f 213d 9da1 5e3c d390 4dbd 5fbf 5abc
00000300: 0044 8a3d cd17 2bbd e024 23bd 5a96 103c
00000310: efc0 3ebd 3a74 603b 21e8 743d 5ebf 38bc
00000320: 7372 023d 2d87 07be b15e 2b3a 1f8b b5bc
00000330: 3ff5 04bd 6138 aebc 125f 15bd 4c71 903d
00000340: dc5d 25bd 3df9 c6bb 6eb3 653d a588 273c
00000350: b535 9d3c 1392 3fbb 867b 3fbd b74c b0bb
00000360: 8e7f babc 00ba bc3c daca c2bc f9fa 053d
00000370: 5aff 8f3c 89b9 4abc 2f53 4ebb f48d dcbc
00000380: 7f68 613d d823 c0bc d7bd dfba 9d64 8ebc
00000390: 822d cd3b 36d0 a5bb 2996 8bbc d005 303d
000003a0: 662a 54bc 74fb f73b 6007 82bc 9eff f6bc
000003b0: e3bd 0fbc 6cee babb a1b6 d43d 801f 673d
000003c0: 2b8a 41bc 7617 a43c 372e 32bd d741 89bb
000003d0: e9b6 333c 13a3 4f3d 41ed 4abd ea76 a5bb
000003e0: 3f8c 1d3d bd96 11bb 0b0d 2e3c b790 2dbc
000003f0: f683 e7bc 5ae6 2dbc 7b54 1c3b 8207 133d

weight f4 [64]
1.088541 1.0529033 1.0569547 1.0698613 1.0402334 1.096361 1.0929884 1.0820395
1.0733005 1.0733023 1.036165 1.0134562 1.0347536 1.0719123 1.0488086 1.0304404
1.0621792 1.0963714 1.0858984 1.0870199 1.0632308 1.0559973 1.0086918 1.0468132
1.0614159 1.0472707 1.0335944 1.0500054 1.0526937 1.0729007 1.0595053 1.0442561
1.071393 1.0481262 1.0733371 1.0675231 1.0653615 1.0457727 1.0852356 1.0630971
1.1086354 1.0663497 1.0416296 1.078916 1.0420579 1.077721 1.0725071 1.0620049
1.0416825 1.0519288 1.0464284 1.0192935 1.0181693 1.1114657 1.0750037 1.050549
1.0462823 1.0498446 1.0475305 1.0590565 1.0687071 1.087679 1.0952301 1.0575078
00000000: 5055 8b3f 89c5 863f 4b4a 873f 37f1 883f
00000010: 5e26 853f 8f55 8c3f 0be7 8b3f 4580 8a3f
00000020: e961 893f f861 893f 0ea1 843f efb8 813f
00000030: ce72 843f 6c34 893f 5c3f 863f 79e5 833f
00000040: 7df5 873f e655 8c3f b8fe 8a3f 7823 8b3f
00000050: f217 883f eb2a 873f d01c 813f fafd 853f
00000060: 7adc 873f f70c 863f d24c 843f 9466 863f
00000070: abbe 863f cf54 893f df9d 873f 2faa 853f
00000080: 6823 893f 0029 863f 1c63 893f 99a4 883f
00000090: c45d 883f e1db 853f 00e9 8a3f 9113 883f
000000a0: c4e7 8d3f 267e 883f 1e54 853f eb19 8a3f
000000b0: 2762 853f c3f2 893f ea47 893f c7ef 873f
000000c0: da55 853f 9aa5 863f 5ef1 853f 3678 823f
000000d0: 5f53 823f 8244 8e3f b999 893f 6478 863f
000000e0: 94ec 853f 4f61 863f 7b15 863f 2a8f 873f
000000f0: 65cb 883f 1139 8b3f 8030 8c3f 6a5c 873f

bias f4 [64]
-0.03319823 0.019008731 -0.009246583 0.030868717 -0.019058648 0.00848762 0.023399053 0.0034836174
-0.01759074 0.018607575 -0.03268602 -0.024279714 0.010544241 -0.0060200985 0.0054769684 -0.024403367
-0.0028883796 -0.0005943579 0.019074906 0.018403053 -0.024869194 0.006978887 0.058471486 0.0064099347
-0.0077539496 -0.023312729 0.023640387 0.0021119495 -0.017911676 -0.0013485522 -0.024715805 -0.01057106
-0.021868384 0.029939279 -0.006989061 0.0033264835 -0.010792346 -0.008040489 0.008454412 -0.047294773
0.0045978813 -0.00583499 0.012002 0.00476554 0.02231168 -0.03508483 0.024115007 -0.0006039501
-0.0011309257 -0.008526655 0.018751852 0.029932836 -0.04985267 0.00022637719 0.023187216 0.019986844
0.0031019251 0.020018505 0.0007031091 -0.012577703 0.02740336 -0.016930178 0.002697935 -0.019456657
00000000: defa 07bd 33b8 9b3c fb7e 17bc 64e0 fc3c
00000010: e220 9cbc a90f 0b3c 5faf bf3c 674d 643b
00000020: 751a 90bc ea6e 983c c7e1 05bd 40e6 c6bc
00000030: c1c1 2c3c 3f44 c5bb 2478 b33b 92e9 c7bc
00000040: f84a 3dbb afce 1bba fa42 9c3c 00c2 963c
00000050: 7bba cbbc 26af e43b cc7f 6f3d 6e0a d23b
00000060: d814 febb 56fa bebc 7ca9 c13c a268 0a3b
00000070: 82bb 92bc e7c1 b0ba cd78 cabc 3d32 2dbc
00000080: 5325 b3bc 3843 f53c 7e04 e5bb 2201 5a3b
00000090: 61d2 30bc 41bc 03bc 6084 0a3c 2ab8 41bd
000000a0: d3a9 963b 7233 bfbb 09a4 443c 3f28 9c3b
000000b0: fcc6 b63c 1cb5 0fbd d68c c53c 6852 1eba
000000c0: 923b 94ba 62b3 0bbc 7c9d 993c b535 f53c
000000d0: 5032 4cbd aa5f 6d39 1ef3 bd3c 73bb a33c
000000e0: ab49 4b3b d9fd a33c da50 383a b612 4ebc
000000f0: 037d e03c 28b1 8abc d7cf 303b 9163 9fbc

weight f4 [64, 192]
-0.12124786 -0.03517339 -0.073482916 0.0048948494 -0.13689402 -0.12216626 0.014207038 -0.098893836
0.00039753804 -0.080890946 0.06241582 0.12976503 -0.14830594 0.083161235 0.04597756 0.071195066
-0.09305931 -0.07900463 -0.026304727 0.102085575 0.11401311 -0.0823781 -0.009273691 -0.1338264
0.123312294 -0.04209963 0.06764969 0.021060603 -0.026254399 -0.08694495 -0.07717226 0.022221923
0.049338866 -0.09531521 -0.07197837 -0.097549126 -0.061402574 -0.012631845 -0.0005071203 0.023350261
-0.07027436 -0.061980627 0.041664124 -0.053685427 0.14001693 -0.08048813 -0.0032964975 -0.012315516
0.069216736 -0.11151385 -0.06426876 0.06970581 -0.009376658 -0.055930857 -0.10229323 -0.11427061
0.024777576 -0.05344263 -0.026880993 0.040150423 0.076290205 -0.10986955 -0.062005565 0.0966405
-0.039180055 -0.02650052 -0.031148696 0.049025334 0.0013388119 -0.10426585 -0.00020058075 0.047076132
-0.0008015233 0.13669877 0.028609373 0.037919257 -0.041698404 0.1381169 -0.10657721 0.044044215
-0.13155666 -0.1035488 0.06567533 0.07745882 0.12703206 -0.04716862 0.030456109 -0.13691218
0.076089956 0.0001389526 0.07062086 -0.015296241 -0.06508451 -0.10570635 -0.10384609 0.095662415
-0.0098093655 -0.10906295 -0.060328614 -0.029974757 -0.05481041 -0.08028117 0.004203609 -0.02162283
-0.060910247 -0.08725108 0.030658927 -0.040700294 0.09110267 -0.0914953 -0.025109142 -0.007562978
-0.11549832 0.11326702 0.06694738 -0.08034803 0.04858998 0.034288142 0.110557914 0.007125079
-0.11074744 0.0035274702 -0.05523875 -0.09325688 0.047861643 -0.02326456 0.12338825 -0.058174834
-0.017317548 -0.049799405 0.015599543 -0.021216396 0.008383717 -0.0131222 0.020712974 -0.002576458
0.012584138 0.03088671 0.005469131 -0.00968052 0.0010643741 0.015618618 0.0003112642 6.973841e-05
0.020362027 -0.0004896693 -0.016644537 -0.0137220295 0.00703867 0.015362142 0.010067696 -0.023261886
-0.014775199 0.008930085 0.0072834017 0.0019190445 0.0070187384 -0.012763942 -0.006289497 -0.00014344424
0.0005348408 -0.02355551 0.017904077 -0.010962867 0.034856725 -0.00024048166 -0.0090844175 -0.007339988
-0.03818346 -0.0026695754 0.019668315 -0.018306041 0.009095912 -0.0029238707 -0.017878985 0.028436942
0.009384359 -0.04373934 -0.03258577 0.011761259 -0.012135058 -0.00035033503 -0.021907734 -0.019860618
0.0032731327 0.016608752 0.0014509294 -0.031464223 0.012393134 -0.008243788 0.0009086724 0.016724437
0.08694392 0.09691527 -0.030954927 0.049813215 0.09758323 0.010961165 0.031818934 -0.026085386
0.018484123 0.009712707 0.00590163 -0.075314745 0.0971363 0.016929572 -0.033547025 -0.11754874
-0.10146125 0.009782306 0.10889764 0.034838054 0.052431323 0.022116259 0.00020120105 0.007438202
0.1118026 -0.069510356 0.02309735 0.06889136 -0.006599405 -0.05777316 0.048744973 -0.02847521
0.064279735 0.07347565 -0.028531607 -0.015205586 -0.042013973 -0.080860116 -0.04090174 0.011847895
-0.06133702 -0.043443676 -0.079976864 -0.13489142 0.100725174 -0.045665324 -0.12971063 0.13201
-0.03466718 0.023654057 0.09117494 0.023525223 0.012697284 -0.0892142 0.00045090806 0.073424704
0.07382491 0.092949465 0.06224359 -0.06742996 -0.02258141 0.025168233 0.062302586 -0.010758023
00000000: cc50 f8bd f911 10bd 367e 96bd f964 a03b
00000010: f22d 0cbe 4e32 fabd a3c4 683c da88 cabd
00000020: a76c d039 27aa a5bd bba7 7f3d 20e1 043e
00000030: 83dd 17be 7050 aa3d f752 3c3d b8ce 913d
00000040: e195 bebd 2ecd a1bd 037d d7bc 3e12 d13d
00000050: b57f e93d d9b5 a8bd aef0 17bc ca09 09be
00000060: 288b fc3d a970 2cbd ec8b 8a3d 4987 ac3c
00000070: 7713 d7bc 3210 b2bd 7d0c 9ebd c00a b63c
00000080: 8d17 4a3d 9f34 c3bd 6569 93bd d6c7 c7bd
00000090: 4481 7bbd ccf5 4ebc 44f0 04ba 0c49 bf3c
000000a0: 01ec 8fbd 66df 7dbd 00a8 2a3d 40e5 5bbd
000000b0: 9960 0f3e f6d6 a4bd 0d0a 58bb 05c7 49bc
000000c0: 81c1 8d3d 6061 e4bd 579f 83bd ebc1 8e3d
000000d0: 8ea0 19bc c117 65bd 1d7f d1bd b606 eabd
000000e0: 58fa ca3c a9e6 5abd 8735 dcbc c574 243d
000000f0: 0a3e 9c3d 4903 e1bd 8cf9 7dbd 74eb c53d
00000100: 447b 20bd 9e17 d9bc 8d2b ffbc cace 483d
00000110: 137b af3a 5589 d5bd fc52 52b9 e7d2 403d
00000120: 511d 52ba c3fa 0b3e 345e ea3c 3951 1b3d
00000130: f2cb 2abd 846e 0d3e 2745 dabd b567 343d
00000140: cab6 06be 6511 d4bd ca80 863d bba2 9e3d
00000150: b114 023e e233 41bd 177f f93c b532 0cbe
00000160: 0dd5 9b3d ceb3 1139 aba1 903d 169d 7abc
00000170: 074b 85bd 927c d8bd 42ad d4bd a8ea c33d
00000180: 76b7 20bc 655c dfbd 231b 77bd 9f8d f5bc
00000190: e180 60bd 746a a4bd 6ebe 893b 5c22 b1bc
000001a0: 067d 79bd b2b0 b2bd 6e28 fb3c 5ab5 26bd
000001b0: 0994 ba3d e361 bbbd b0b1 cdbc dcd2 f7bb
000001c0: 628a ecbd 8af8 e73d b51b 893d 828d a4bd
000001d0: 4906 473d b971 0c3d 306c e23d 7f79 e93b
000001e0: 8ecf e2bd 212d 673b 0742 62bd 77fd bebd
000001f0: 920a 443d 5295 bebc fbb2 fc3d bc48 6ebd
00000200: 88dd 8dbc 76fa 4bbd 3a95 7f3c 02ce adbc
00000210: dc5b 093c 7ffe 56bc 41ae a93c cbd9 28bb
00000220: b32d 4e3c 2006 fd3c 6536 b33b 0b9b 1ebc
00000230: 7882 8b3a 3be5 7f3c 2c31 a339 8640 9238
00000240: 44ce a63c 275d 00ba 205a 88bc 5dd2 60bc
00000250: a5a4 e63b 7eb1 7b3c faf2 243c b68f bebc
00000260: ad13 72bc 7e4f 123c 9aa9 ee3b 7388 fb3a
00000270: 72fd e53b da1f 51bc 2018 cebb 8569 16b9
00000280: 8f34 0c3a 7cf7 c0bc 92ab 923c 999d 33bc
00000290: edc5 0e3d ce29 7cb9 cfd6 14bc 4884 f0bb
000002a0: 4266 1cbd 0bf4 2ebb 721f a13c 8df6 95bc
000002b0: 0507 153c 699e 3fbb f376 92bc 97f4 e83c
000002c0: dbc0 193c 0628 33bd a878 05bd 4cb2 403c
000002d0: 1fd2 46bc 2cad b7b9 d977 b3bc bcb2 a2bc
000002e0: 0e82 563b 140f 883c 1d2d be3a a1e0 00bd
000002f0: 920c 4b3c f410 07bc f933 6e3a b001 893c
00000300: a70f b23d 837b c63d 3095 fdbc f108 4c3d
00000310: b7d9 c73d 7596 333c 9254 023d 05b1 d5bc
00000320: 046c 973c 0c22 1f3c 7662 c13b 9e3e 9abd
00000330: 65ef c63d e3af 8a3c 9b68 09bd 65bd f0bd
00000340: eaca cfbd f745 203c ba05 df3d 59b2 0e3d
00000350: 3ac2 563d 282d b53c 7ff9 5239 29bc f33b
00000360: c3f8 e43d 725b 8ebd a736 bd3c ea16 8d3d
00000370: d23f d8bb 8da3 6cbd cfa8 473d d844 e9bc
00000380: 18a5 833d 677a 963d 1ebb e9bc da20 79bc
00000390: d816 2cbd fd99 a5bd 9588 27bd ac1d 423c
000003a0: 873c 7bbd fff1 31bd e9ca a3bd fa20 0abe
000003b0: 0049 ce3d 900b 3bbd ddd2 04be a12d 073e
000003c0: 2cff 0dbd 27c6 c13c edb9 ba3d f8b7 c03c
000003d0: 4508 503c efb5 b6bd db67 ec39 b15f 963d
000003e0: 8431 973d 4a5c be3d 22f3 7e3d b818 8abd
000003f0: a6fc b8bc 9c2d ce3c ff30 7f3d 6b42 30bc

bias f4 [192]
0.118325874 0.13278787 -0.01579613 0.0714701 0.044058766 0.10526113 0.035882417 -0.0033454774
0.02084175 -0.047471993 0.02290472 -0.041205484 0.13771226 -0.09558118 0.01784997 -0.098478355
-0.028866308 -0.03926292 -0.02189713 0.034812033 0.040364433 0.011134361 -0.04172312 -0.06756501
-0.00096745655 0.040998463 -0.050044432 -0.069383614 -0.021490367 -0.04386578 -0.096574225 0.05140497
-0.07569035 0.0004387405 0.048327483 0.026277587 -0.013744257 0.010754538 -0.023523264 -0.020034544
-0.011467067 -0.03571523 -0.022329334 0.052076053 0.025043802 0.036144752 0.07372358 -0.017351514
0.04904481 -0.06773261 -0.06826227 0.11211705 0.017276721 -0.024818065 -0.06470286 -0.032796543
0.0891427 -0.061274815 -0.06807975 0.06063024 0.05732817 -0.024070432 -0.00050618267 0.04710385
-2.0092066e-05 -8.886714e-05 -5.6570665e-05 7.9896505e-05 0.00034986465 0.00013032116 0.00015654735 0.00019704596
1.312563e-05 0.00018606774 -3.7802514e-05 -0.00020714887 0.0003214346 1.4548895e-05 -0.00013440911 5.0443585e-05
4.5088815e-05 -4.4211374e-05 6.996462e-05 5.0982657e-05 9.599368e-05 -1.3583943e-05 4.7844296e-05 -8.502847e-05
9.7732795e-05 -1.423353e-05 7.8763565e-05 -5.5877623e-05 7.7940695e-06 -8.894774e-05 3.1638683e-05 2.848384e-05
3.6865873e-05 -7.543479e-05 -5.4939574e-05 -0.00011257825 2.8284605e-05 4.6985674e-06 -2.7208016e-05 -8.848891e-05
-0.000106438114 2.4622885e-05 0.00018844652 5.4315737e-05 1.8221515e-05 -4.221654e-05 0.000105685 -4.4964785e-05
-8.7923625e-05 -2.5916804e-06 4.57927e-06 5.5282377e-05 -2.867588e-05 -1.3966283e-05 2.0411828e-05 3.9399456e-05
5.429824e-05 -6.217927e-05 3.7933904e-05 2.7677483e-05 -9.380713e-05 -3.3963985e-05 -6.5114216e-07 -3.7369387e-05
0.0074892286 0.001042791 -0.015307841 0.007558346 -0.009918624 -0.016801637 0.004435311 0.004927882
0.005258055 -0.0036622004 0.0017268006 0.006502683 0.0087828 0.01542351 -0.0016427183 0.0050003477
0.009585434 -0.01075156 0.0019715955 -0.014760961 0.0005546206 -0.0060862023 -0.0059482874 -0.00041581749
-0.003764442 0.0017713977 0.009334178 -0.0074882805 -0.008662807 -0.0067251083 -0.008811655 0.015146147
-0.017606318 -0.003031355 -0.00061816105 0.0023836433 -0.007260056 -0.014548872 -0.009255739 -0.00615122
0.021233827 -0.004920434 -0.020458233 -0.002324443 -0.014213964 -0.0042165522 -0.010022586 -0.0019088004
0.0053298185 -0.0010493106 0.009199211 -0.0059563774 -0.0007967705 0.018435389 0.03435896 0.008773975
-0.0047013094 -0.009254682 -0.00063607766 0.0005472906 -0.00013163297 -0.0023171827 0.00679932 -0.006056316
00000000: d654 f23d 8bf9 073e e366 81bc ea5e 923d
00000010: f776 343d 2693 d73d 71f9 123d cc3f 5bbb
00000020: 51bc aa3c fe71 42bd aea2 bb3c 15c7 28bd
00000030: 7104 0d3e 11c0 c3bd 1a3a 923c 05af c9bd
00000040: 0979 ecbc 28d2 20bd 9c61 b3bc 1097 0e3d
00000050: 2d55 253d e56c 363c dde5 2abd 865f 8abd
00000060: e99c 7dba 01ee 273d 64fb 4cbd ff18 8ebd
00000070: 910c b0bc 9bac 33bd b5c8 c5bd 058e 523d
00000080: 8b03 9bbd c106 e639 0af3 453d 1844 d73c
00000090: 982f 61bc cd33 303c dcb3 c0bc 7c1f a4bc
000000a0: 5de0 3bbc 224a 12bd 02ec b6bc b34d 553d
000000b0: a928 cd3c 850c 143d 63fc 963d c324 8ebc
000000c0: 36e3 483d 65b7 8abd 17cd 8bbd a09d e53d
000000d0: e987 8d3c 414f cbbc ef82 84bd ab55 06bd
000000e0: 7390 b63d 4dfb 7abd 656d 8bbd 6a57 783d
000000f0: f1d0 6a3d 5b2f c5bc 58b1 04ba f7ef 403d
00000100: 628b a8b7 2f5e bab8 4a46 6db8 1c8e a738
00000110: 0a6e b739 d2a6 0839 dc26 2439 1f9e 4e39
00000120: 2736 5c37 2e1b 4339 248e 1eb8 1a36 59b9
00000130: 3986 a839 0717 7437 2cf0 0cb9 6393 5338
00000140: bf1d 3d38 9a6f 39b8 f8b9 9238 36d6 5538
00000150: 3750 c938 97e6 63b7 6cac 4838 5051 b2b8
00000160: e5f5 cc38 8ccc 6eb7 de2d a538 245e 6ab8
00000170: 46c3 0237 7489 bab8 c7b3 0438 95f0 ee37
00000180: 6ea0 1a38 bf32 9eb8 eb6e 66b8 fd17 ecb8
00000190: ba44 ed37 63a8 9d36 c53c e4b7 1f93 b9b8
000001a0: 8737 dfb8 3e8d ce37 ba99 4539 14d1 6338
000001b0: 68da 9837 aa11 31b8 34a3 dd38 9298 3cb8
000001c0: a363 b8b8 bbec 2db6 a1a7 9936 00df 6738
000001d0: fc8c f0b7 bb50 6ab7 113a ab37 d840 2538
000001e0: 4bbe 6338 3e66 82b8 381b 1f38 f12c e837
000001f0: 52ba c4b8 8d74 0eb8 26ca 2eb5 13bd 1cb8
00000200: 3468 f53b 42ae 883a bdcd 7abc 00ac f73b
00000210: b981 22bc 96a3 89bc 1656 913b 127a a13b
00000220: c34b ac3b 8701 70bb d055 e23a 7514 d53b
00000230: bce5 0f3c e4b2 7c3c 7b50 d7ba f5d9 a33b
00000240: 390c 1d3c 5027 30bc e235 013b f5d7 71bc
00000250: f563 113a c46e c7bb dae9 c2bb 1402 dab9
00000260: dbb4 76bb 3e2e e83a 61ee 183c 4060 f5bb
00000270: 72ee 0dbc 4c5e dcbb c35e 10bc 8c27 783c
00000280: 203b 90bc b3a9 46bb 160c 22ba e636 1c3b
00000290: c4e5 edbb 645e 6ebc 62a5 17bc 2c90 c9bb
000002a0: 90f2 ad3c 983b a1bb 0698 a7bc af55 18bb
000002b0: b0e1 68bc 012b 8abb c635 24bc b730 faba
000002c0: c2a5 ae3b 0589 89ba 4ab8 163c b72d c3bb
000002d0: 5dde 50ba d005 973c fbbb 0c3d b8c0 0f3c
000002e0: 710d 9abb f3a0 17bc 73be 26ba 0d78 0f3a
000002f0: f506 0ab9 e0db 17bb d5cc de3b 1074 c6bb

weight f4 [64, 64]
-0.0013158526 -0.0054972484 0.006098114 -0.004475628 -0.008785105 -0.0001985635 -0.0063410997 -0.0030434825
-0.0052602272 0.0009120539 0.013948197 0.008556588 0.0021171765 0.007819737 0.009853622 -0.0016649073
-0.006937655 -0.00815643 0.012467083 0.0061073396 0.025772909 -0.010043454 0.0034072008 0.013563816
-0.016585011 0.013464289 0.0088841915 -0.00021359457 0.0052421447 -0.009040565 -0.0042889435 0.010162528
-0.009389626 -0.004430976 -0.007680592 -0.013552756 -0.020487476 -0.017627459 -0.002050364 -0.0014199713
0.018403308 0.010640369 -0.006914405 -0.0002878665 0.0046023703 0.009368667 0.007836765 -0.0112076625
-0.0014134829 0.0072287354 0.017663777 -0.0022996329 -0.009202757 -0.0008857922 0.013455591 -0.002836869
-0.023640258 0.0005436594 -0.0067861676 -0.0012235804 0.00983587 -0.0063700695 -0.008754869 0.013643532
-0.008338322 0.00018997742 -0.0038042234 0.008268415 -0.009476602 -0.004501867 0.007124465 0.007891811
-0.0064775567 -0.0006402097 -0.007838853 -0.005828075 -0.0023533863 0.0004899769 0.0024291328 -0.0046003098
0.0068450873 -0.021690533 0.016918024 0.007618949 -0.0017725965 -0.005677531 -0.00400887 -0.0019022456
-0.009606321 0.008550257 0.0036382847 0.011273153 -0.010487889 0.006823237 0.0022059036 -0.00024721463
0.0018082374 -0.00029321652 0.00056703173 0.009770156 -0.017679077 0.008890981 0.00024448422 -0.009495244
0.006366495 -0.00026438027 0.0077464054 0.000291006 0.005655428 -0.0009517688 0.0013318555 -0.008405443
0.0009385082 0.00075775885 0.00793253 0.002429792 0.0053337635 0.0010175405 -0.012531307 0.010456187
-0.026053376 2.3721545e-06 2.1046912e-05 0.0035867533 -0.013148301 0.0036571594 -0.01482743 -0.0046808403
-0.010415437 0.0030698564 0.0027516033 -0.006136546 -0.011638895 -0.0034545006 -0.0039064055 -0.011212847
0.0035477406 -0.0006612841 -0.0020062225 0.020196062 -0.001574625 -0.012341703 0.010901923 0.005389414
-0.0011142553 -0.008134032 -0.0006269484 -0.001316309 -0.008213242 0.0093204845 0.00039623698 -0.01370106
0.0010927884 -0.015295707 -0.00012048916 -0.0011307732 -0.024008304 0.0075024515 0.0075690094 0.020546285
0.0009469928 0.011319599 -0.00081596733 0.01441095 -0.0059220637 0.014680192 -0.004095012 -0.0013439446
-0.00804108 -0.018629542 0.022638312 0.011889909 0.008088367 0.0073342915 0.007391352 0.015516066
-0.0116099045 0.003016646 -0.0036335178 0.00084694766 0.005708667 -0.0006072577 -0.010233038 0.0027977729
-0.011444558 -0.0016173009 -2.679293e-06 -0.0023463657 -0.010055818 -0.008244707 -0.019465804 -0.004388401
0.013785929 -0.008021199 -0.0010618438 0.0023266675 0.009435438 -0.0059556323 -0.009155373 0.011262306
0.007899911 -0.003780803 -0.0077567277 0.0049156756 0.009943052 0.00024662298 -0.0047064754 0.004295627
-0.012430437 0.013548804 -0.00748473 0.018936666 0.008520919 -0.0076765395 0.0033439768 5.657007e-05
-0.011535565 -0.0061326097 0.006099439 -0.008840955 -0.015304673 0.004167615 -0.008120409 -0.016469033
0.0018246686 0.0012384761 -0.0053709857 0.0077587115 0.009410157 0.0029301986 -0.0061812596 -0.0062635364
0.01419464 0.0039589163 -0.0045276526 -0.021267943 0.008143589 -0.004085148 0.0072862427 -0.00039217158
-0.0037623057 -0.0066458336 0.0012232874 0.020030491 0.022488488 -0.0016574627 0.013824973 0.005393807
-0.0012140536 0.0059969155 0.012947866 -0.0059104403 -0.009446172 0.00011520135 -0.00564838 -0.0078553865
00000000: b078 acba 4322 b4bb b0d2 c73b 4aa8 92bb
00000010: 67ef 0fbc 7c35 50b9 00c9 cfbb 2a75 47bb
00000020: fc5d acbb e716 6f3a fa86 643c ee30 0c3c
00000030: 54c0 0a3b 5b1e 003c 1671 213c 0539 daba
00000040: 4555 e3bb 8ca2 05bc bc42 4c3c 1420 c83b
00000050: b521 d33c 4d8d 24bc 584b 5f3b c53a 5e3c
00000060: 4add 87bc 5299 5c3c 008f 113c 5bf8 5fb9
00000070: 4cc6 ab3b e11e 14bc 448a 8cbb bb80 263c
00000080: f2d6 19bc b931 91bb 7aad fbbb 610c 5ebc
00000090: 5ad5 a7bc 7667 90bc 665f 06bb 551e baba
000000a0: 89c2 963c f154 2e3c 3c92 e2bb caec 96b9
000000b0: 7bcf 963b 0a7f 193c c665 003c 58a0 37bc
000000c0: 9e44 b9ba 07df ec3b a0b3 903c 70b5 16bb
000000d0: 29c7 16bc 8234 68ba d774 5c3c c4ea 39bb
000000e0: 37a9 c1bc 5d84 0e3a 805e debb 8c60 a0ba
000000f0: a126 213c 04bc d0bb 9570 0fbc 1f89 5f3c
00000100: 759d 08bc ad34 4739 4750 79bb 3f78 073c
00000110: c043 1bbc 6684 93bb 5874 e93b a84c 013c
00000120: af41 d4bb bfd3 27ba 886e 00bc 70f9 bebb
00000130: 453b 1abb cb71 003a 1632 1f3b 32be 96bb
00000140: c14c e03b 58b0 b1bc ab97 8a3c 60a8 f93b
00000150: 7856 e8ba 950a babb d75c 83bb c554 f9ba
00000160: d563 1dbc 6116 0c3c 4a70 6e3b 08b3 383c
00000170: 65d5 2bbc 7695 df3b ec90 103b 969c 81b9
00000180: 6102 ed3a dbba 99b9 dba4 143a 0113 203c
00000190: b6d3 90bc 7aab 113c 1e2e 8039 f191 1bbc
000001a0: 089e d03b 859c 8ab9 8fd5 fd3b 2a92 9839
000001b0: 2b51 b93b 1f80 79ba a891 ae3a fcb6 09bc
000001c0: 3806 763a 56a4 463a 71f7 013c 253d 1f3b
000001d0: dac6 ae3b fe5e 853a 1c50 4dbc 6d50 2b3c
000001e0: e46d d5bc 4e31 1f36 e68d b037 bc0f 6b3b
000001f0: f96b 57bc f4ac 6f3b c0ee 72bc bc61 99bb
00000200: 82a5 2abc a52f 493b 3e54 343b 1415 c9bb
00000210: 10b1 3ebc e764 62bb 4e01 80bb 17b6 37bc
00000220: 3681 683b 065a 2dba d47a 03bb 3672 a53c
00000230: a663 ceba db34 4abc fb9d 323c ae99 b03b
00000240: 340c 92ba 9a44 05bc cb59 24ba 0088 acba
00000250: d590 06bc f2b4 183c 07be cf39 697a 60bc
00000260: e53b 8f3a d89a 7abc 20af fcb8 7436 94ba
00000270: 10ad c4bc 20d7 f53b 7405 f83b af50 a83c
00000280: 9c3f 783a d775 393c a4e6 55ba e81b 6c3c
00000290: df0d c2bb 3085 703c 732f 86bb 4c27 b0ba
000002a0: bcbe 03bc fb9c 98bc fb73 b93c e5cd 423c
000002b0: 1285 043c 7f54 f03b 2833 f23b 1937 7e3c
000002c0: 7837 3ebc ecb2 453b 5020 6ebb b205 5e3a
000002d0: c50f bb3b 6030 1fba 79a8 27bc d75a 373b
000002e0: f581 3bbc 9dfb d3ba e7cd 33b6 7cc5 19bb
000002f0: 28c1 24bc cf14 07bc c076 9fbc 93cc 8fbb
00000300: 61de 613c 596b 03bc 912d 8bba 017b 183b
00000310: 1897 1a3c 7727 c3bb 6b00 16bc 8985 383c
00000320: a16e 013c 59c7 77bb 262c febb ad13 a13b
00000330: 2fe8 223c 2d4d 8139 c738 9abb 55c2 8c3b
00000340: 08a9 4bbc cefb 5d3c 7742 f5bb 1121 9b3c
00000350: 539b 0b3c 7b8b fbbb 9f26 5b3b a645 6d38
00000360: abff 3cbc 0ff4 c8bb cedd c73b a7d9 10bc
00000370: 74c0 7abc 7d90 883b 770b 05bc 11ea 86bc
00000380: b829 ef3a 5d54 a23a 18ff afbb ca3c fe3b
00000390: 0f2d 1a3c 9308 403b 2a8c cabb 5a3e cdbb
000003a0: a390 683c ccb9 813b b45c 94bb 1c3a aebc
000003b0: b06c 053c b5dc 85bb 6fc1 ee3b 619c cdb9
000003c0: 0491 76bb 4bc5 d9bb b756 a03a fc16 a43c
000003d0: c739 b83c 383f d9ba 2482 623c 88be b03b
000003e0: e120 9fba c681 c43b 4923 543c 5eac c1bb
000003f0: 1ec4 1abc 4198 f138 0c16 b9bb e1b3 00bc

bias f4 [64]
-0.004552537 0.00032566572 -0.0007339101 0.0021603974 0.0010899429 -0.002018655 0.00015426421 0.0011241622
-0.0026507596 0.00073369045 0.0010614322 0.0020739052 0.0031548738 -0.0009703658 0.00079993455 0.001830188
0.0034341523 -0.0075940257 0.0005051189 -0.0015752092 -0.00063672464 0.0016373522 -0.00021341935 0.0014249197
0.002602553 -0.00326523 -0.002006017 -0.0021381069 -0.0007699976 0.002177142 0.0012158407 0.0020434877
-0.0025288418 0.0010886041 0.0018551076 0.004309732 0.0009718521 0.00016918867 0.0029756052 -0.00023449321
-0.0013710181 -0.003947668 -0.00039788845 0.0029061346 0.0013191843 0.0021935352 -0.0005946634 0.0015871502
0.0005426077 0.003344917 0.0038357098 0.0002534355 0.0010668006 -0.006105753 0.0006247111 -0.00011481869
-0.0053601325 -0.000401229 -0.0017370845 0.0039364067 0.0034057763 -0.0013422151 -0.00014697942 -0.0013244441
00000000: 732d 95bb 1dbe aa39 e063 40ba 7495 0d3b
00000010: 6adc 8e3a 694b 04bb fcc1 2139 a058 933a
00000020: 5eb8 2dbb 2255 403a c11f 8b3a 5bea 073b
00000030: 00c2 4e3b 2660 7eba b3b2 513a ebe2 ef3a
00000040: 840f 613b 4ed7 f8bb f569 043a 4077 ceba
00000050: dee9 26ba 6c9c d63a 52c9 5fb9 5fc4 ba3a
00000060: 988f 2a3b 78fd 55bb 6177 03bb 7b1f 0cbb
00000070: aad9 49ba 62ae 0e3b d85c 9f3a 09ec 053b
00000080: edba 25bb 7eaf 8e3a 1527 f33a a738 8d3b
00000090: e4c3 7e3a 3d68 3139 5f02 433b 4be2 75b9
000000a0: bcb3 b3ba 705b 81bb af9b d0b9 d974 3e3b
000000b0: 7be8 ac3a 6ac1 0f3b 2fe3 1bba ec07 d03a
000000c0: c93d 0e3a 6536 5b3b 8860 7b3b 89df 8439
000000d0: e3d3 8b3a c512 c8bb a7c3 233a d1ca f0b8
000000e0: 0da4 afbb 0b5c d2b9 e2ae e3ba f9fc 803b
000000f0: 7233 5f3b 44ed afba 7d1e 1ab9 f898 adba

weight f4 [64]
0.9979045 1.0184207 1.0154613 1.0274956 1.0050364 0.99584925 1.0279696 0.98720413
1.0173178 1.0144237 1.0192664 0.9833144 0.96509355 1.0345263 0.9749964 1.0115366
1.0006801 0.99827254 1.0337455 0.992867 1.0342523 1.0207732 0.97500926 1.0217515
1.019251 1.0110002 1.0066215 0.99127454 1.0218425 1.0092428 0.9809058 1.0079262
1.0204394 0.9929225 0.9978521 1.0483539 1.0100746 1.0431975 0.9819458 0.97484165
0.9820629 0.9939773 0.97273123 0.9899083 1.0280644 1.0134678 1.0208485 1.0051425
1.058149 0.99494576 1.0069462 0.9888323 1.0079786 1.0492363 1.012917 0.99545217
1.0194114 0.9940889 0.9857115 1.0125949 1.0064251 0.9891563 1.0336292 0.9858314
00000000: ab76 7f3f 9c5b 823f a3fa 813f fa84 833f
00000010: 08a5 803f faef 7e3f 8294 833f 69b9 7c3f
00000020: 7837 823f a3d8 813f 5277 823f 7eba 7b3f
00000030: 5f10 773f 5c6b 843f 5d99 793f 087a 813f
00000040: 4916 803f ca8e 7f3f c651 843f 882c 7e3f
00000050: 6162 843f b2a8 823f 359a 793f c1c8 823f
00000060: d176 823f 7468 813f f9d8 803f 2bc4 7d3f
00000070: bccb 823f de2e 813f a41c 7b3f ba03 813f
00000080: c29d 823f 2b30 7e3f 3c73 7f3f 7630 863f
00000090: 204a 813f 7f87 853f cd60 7b3f 398f 793f
000000a0: 7968 7b3f 4c75 7e3f ea04 793f a16a 7d3f
000000b0: 9d97 833f 50b9 813f 2aab 823f 82a8 803f
000000c0: 6d71 873f c4b4 7e3f 9de3 803f 1d24 7d3f
000000d0: 7105 813f 604d 863f 44a7 813f f4d5 7e3f
000000e0: 137c 823f 9c7c 7e3f 9757 7c3f b69c 813f
000000f0: 8ad2 803f 5939 7d3f f64d 843f 725f 7c3f

bias f4 [64]
-0.024239773 0.012912585 -0.04091948 -0.013020998 0.027918769 0.026716566 -0.003020557 0.025674272
0.012561686 0.016301833 0.0125088515 -0.011220917 0.044040304 -0.009781112 -0.016130446 -0.003850776
0.040210895 -0.0007385291 0.010797917 -0.008817303 -0.015597208 0.036081787 0.0025460352 -0.004862752
0.02525971 -0.0064371647 0.0047269063 0.005996037 -0.0017972875 -0.0041360287 0.01000675 -0.030741693
-0.014113986 0.015604919 0.007951584 0.03173651 -0.018988881 -0.01127131 0.029277625 0.009560195
-0.024836367 -0.007009125 0.0014321926 0.028935678 -0.014783029 0.012044852 0.00740831 0.02640251
0.048926327 -0.008629822 0.025166709 0.007353771 0.01969156 0.010902571 -0.017343258 0.0074831955
-0.042540394 0.0011515942 -0.0028257542 -0.009594468 0.016037991 -0.0067784456 0.012339838 -0.013953974
00000000: 7d92 c6bc 4f8f 533c 2f9b 27bd 0656 55bc
00000010: e7b5 e43c b3dc da3c 8af4 45bb da52 d23c
00000020: 88cf 4d3c 6c8b 853c edf1 4c3c f0d7 37bc
00000030: 9b63 343d f540 20bc ff23 84bc 4d5d 7cbb
00000040: 2eb4 243d d999 41ba bfe9 303c 7376 10bc
00000050: 6f8b 7fbc 7fca 133d 62db 263b b857 9fbb
00000060: 74ed ce3c daee d2bb 2ae4 9a3b 677a c43b
00000070: f692 ebba 8687 87bb 5af3 233c 01d6 fbbc
00000080: 593e 67bc c6ab 7f3c 5c47 023c 25fe 013d
00000090: 928e 9bbc 4dab 38bc a1d7 ef3c 5da2 1c3c
000000a0: a375 cbbc cdac e5bb 69b8 bb3a 840a ed3c
000000b0: 8534 72bc c557 453c 69c1 f23b 144a d83c
000000c0: f966 483d 1964 0dbc 6a2a ce3c e7f7 f03b
000000d0: 3250 a13c b2a0 323c 7313 8ebc 9835 f53b
000000e0: d63e 2ebd 17f1 963a 4a30 39bb 1e32 1dbc
000000f0: 1b62 833c b91d debb 082d 4a3c 359f 64bc

weight f4 [64, 256]
0.0145516405 -0.045032628 0.020334588 0.029344743 0.012756929 0.005438887 -8.814525e-05 -0.013724639
0.0054094866 -0.017641596 -0.008521539 0.016067045 -0.003542955 -0.007570943 0.035067342 0.0042553903
-0.026478551 -0.021430016 0.0032659532 -0.016532246 -0.0059576337 -0.0007475395 0.027331367 0.037799273
0.05736257 -0.015340708 -0.021077594 0.021757161 0.032202575 0.011994246 -0.022190876 -0.0014974163
0.003003639 0.022607092 -0.0012139521 -0.002242235 -0.002532921 -0.0050033694 0.0009852381 0.03258742
-0.02302407 0.0068219355 0.0102678975 0.036711648 -0.02430708 0.02795974 0.017353265 0.033944424
-0.005195197 0.026208023 0.045605455 0.015048691 -0.025619624 -0.0011068344 0.0163958 0.024572464
0.047228485 -0.008087984 0.0008929187 0.03558135 -0.025803233 -0.00024356107 -0.009614554 -0.0018617909
0.023995532 0.012643527 0.027817005 0.021766279 0.0011859273 -0.034887645 -0.03575028 -0.011977293
0.0013925681 0.008091359 0.03795717 0.005244332 0.015820658 -0.027638735 -0.016061703 0.035677865
0.008070119 0.0056228954 -0.011748483 -0.024397448 -0.031567685 -0.051964514 0.01909713 -0.013224662
0.0050127 0.009364251 0.010070842 0.024695996 -0.008584929 0.0029671346 -0.013987344 0.009708224
0.007559028 -0.01520642 -0.01429441 -0.01688172 0.012456598 0.010544375 0.007834056 -0.00046983903
-0.032453276 0.002555714 0.023423377 0.036705263 -0.016644327 -0.021845894 0.005935084 0.012476465
-0.011193373 -0.017668877 0.020875245 0.03242607 0.0069832206 -0.00030844775 0.0023110982 0.017466381
-0.031235497 0.021722382 -0.00073745195 -0.05365598 0.019487578 0.040486813 -0.039453957 0.017035868
0.009754212 0.0044384226 0.021932367 -0.029828904 0.0062026787 0.041234598 0.013913068 0.013255634
0.0028781903 0.019462405 -0.009687196 -0.036134023 0.010170997 -0.0049004075 0.012033031 -0.0016873525
0.023358867 0.024730494 0.032609746 0.013041007 0.0294526 0.03275396 0.00458449 -0.018098654
0.02247508 -0.02725354 -0.035461582 0.006937431 -0.009149858 0.017551806 0.032445602 -0.034135655
0.040056895 0.0076094507 0.058882717 0.02553091 0.04834355 0.010661418 -0.007775961 -0.020492023
-0.040977605 -0.024332006 0.025248412 0.04485001 0.01894789 0.035961118 0.03739388 -0.02815348
0.009302805 0.013035989 -0.039775852 -0.010205834 -0.005673805 0.03010644 0.0005421868 0.01027756
-0.017293984 0.026982164 0.04293558 -0.020068124 0.026704118 0.02848363 -0.005756183 -0.016192354
0.043265864 0.040142775 -0.014534041 0.0018465637 -0.02766622 -0.0095982095 -0.0091355145 0.027184984
-0.014918956 0.03132467 0.0032787686 0.017010309 -0.0032625913 -0.008756164 -0.014436616 -0.017213512
-0.020924617 0.016310798 0.009291027 0.035313684 -0.022848908 0.0005842645 -0.025239328 -9.0793605e-05
0.024956437 -0.016147021 0.011074964 -0.018483527 0.010394975 -0.027178815 0.0097739445 -0.01890368
-0.02193438 0.053443957 -0.036303345 0.011135626 0.021652138 -0.019456645 0.004792621 -0.02359967
0.020693533 0.006621634 -0.006392665 -0.014002772 -0.027924698 -0.015719542 -0.0060390574 0.03864016
-0.017726053 -0.0019782183 0.02133898 -0.010701537 0.022101142 0.035027903 0.036272082 -0.018309603
0.006985326 -0.05450312 -0.0013055882 0.02130377 0.04301108 -0.026374573 0.00608288 0.016685518
00000000: 016a 6e3c 2274 38bd b994 a63c 6364 f03c
00000010: 7002 513c b138 b23b 9fda b8b8 4fdd 60bc
00000020: 1042 b13b 1c85 90bc ed9d 0bbc 099f 833c
00000030: ec30 68bb ac15 f8bb c6a2 0f3d cd70 8b3b
00000040: 8ce9 d8bc 008e afbc 9a09 563b a26e 87bc
00000050: 4138 c3bb 87f6 43ba 08e6 df3c 69d3 1a3d
00000060: 04f5 6a3d 9857 7bbc ebaa acbc 133c b23c
00000070: d9e6 033d 8483 443c a4c9 b5bc f444 c4ba
00000080: b3d8 443b 8232 b93c 791d 9fba 76f2 12bb
00000090: 5dff 25bb 4ef3 a3bb 1b23 813a 637a 053d
000000a0: f99c bcbc 8b8a df3b af3a 283c f45e 163d
000000b0: a41f c7bc d30b e53c 6f28 8e3c 4f09 0b3d
000000c0: 793c aabb 35b2 d63c c9cc 3a3d c98e 763c
000000d0: 3fe0 d1bc 3313 91ba 7c50 863c 314c c93c
000000e0: a872 413d 7783 04bc c212 6a3a c0bd 113d
000000f0: 4d61 d3bc 6d64 7fb9 5d86 1dbc 5607 f4ba
00000100: 4792 c43c cc26 4f3c 7de0 e33c 324f b23c
00000110: 1e71 9b3a 59e6 0ebd e36e 12bd 683c 44bc
00000120: d586 b63a 9f91 043c fa78 1b3d a5d8 ab3b
00000130: 539a 813c a16a e2bc d593 83bc f422 123d
00000140: 8838 043c 4440 b83b b67c 40bc 28dd c7bc
00000150: 1e4d 01bd bed8 54bd 9671 9c3c 41ac 58bc
00000160: 9341 a43b 846c 193c 2c00 253c 424f ca3c
00000170: cda7 0cbc 4274 423b 2c2b 65bc 3e0f 1f3c
00000180: b9b1 f73b 5924 79bc 1a33 6abc 884b 8abc
00000190: c216 4c3c 50c2 2c3c 6a5a 003c ba54 f6b9
000001a0: baed 04bd c47d 273b 62e2 bf3c 4258 163d
000001b0: af59 88bc 29f6 b2bc 187b c23b 166a 4c3c
000001c0: 6964 37bc 52be 90bc 9002 ab3c 33d1 043d
000001d0: 80d3 e43b 28b7 a1b9 cb75 173b a815 8f3c
000001e0: 96e1 ffbc 23f3 b13c 9051 41ba 5fc6 5bbd
000001f0: 6aa4 9f3c 80d5 253d 799a 21bd ce8e 8b3c
00000200: 21d0 1f3c 3070 913b 82ab b33c bf5b f4bc
00000210: d73f cb3b 9ce5 283d a3f3 633c 292e 593c
00000220: 05a0 3c3b 9f6f 9f3c 0cb7 1ebc 4501 14bd
00000230: 41a4 263c 9993 a0bb 3126 453c 282a ddba
00000240: 185b bf3c 9b97 ca3c cc91 053d f3a9 553c
00000250: 9446 f13c 0429 063d 7d39 963b a143 94bc
00000260: a91d b83c d142 dfbc 2a40 11bd 6453 e33b
00000270: 49e9 15bc cec8 8f3c aee5 043d d4d1 0bbd
00000280: b312 243d b358 f93b 012f 713d 3326 d13c
00000290: e303 463d 3aad 2e3c 7dcd febb e3de a7bc
000002a0: 22d8 27bd ea53 c7bc c2d5 ce3c a5b4 373d
000002b0: 9b38 9b3c f74b 133d 532a 193d 20a2 e6bc
000002c0: cb6a 183c e794 553c 01ec 22bd 5f36 27bc
000002d0: 53eb b9bb c8a1 f63c 8a21 0e3a 3663 283c
000002e0: 1dac 8dbc b309 dd3c 38dd 2f3d e865 a4bc
000002f0: 98c2 da3c 8056 e93c 5d9e bcbb d4a5 84bc
00000300: 8c37 313d c06c 243d 3020 6ebc 6508 f23a
00000310: 45a4 e2bc cf41 1dbc 20ad 15bc 0bb3 de3c
00000320: a36e 74bc 4c4e 003d 9ce0 563b 3459 8b3c
00000330: 33d1 55bb 0476 0fbc 8e87 6cbc 5a03 8dbc
00000340: 1a6a abbc 399e 853c 6439 183c 15a5 103d
00000350: a22d bbbc 5429 193a b5c2 cebc 7268 beb8
00000360: 7171 cc3c c246 84bc c473 353c c46a 97bc
00000370: af4f 2a3c 1ba6 debc e522 203c e4db 9abc
00000380: bbaf b3bc 0de8 5a3d d1b2 14bd 3372 363c
00000390: d35f b13c 8b63 9fbc 6b0b 9d3b 1854 c1bc
000003a0: 7c85 a93c 4bfa d83b 9079 d1bb e26b 65bc
000003b0: 56c2 e4bc 45c6 80bc 49e3 c5bb 2545 1e3d
000003c0: 3a36 91bc ffa4 01bb 16cf ae3c 8055 2fbc
000003d0: 740d b53c 6b79 0f3d 0992 143d 05fe 95bc
000003e0: 29e5 e43b aa3e 5fbd 4520 abba 3e85 ae3c
000003f0: 632c 303d 7d0f d8bc e552 c73b 11b0 883c
